others/trained_weights_3conv.npz (npz, 361802 bytes, 10 tensors)

conv1_w f4 [16, 3, 3, 3]
00000000: b1bb 2abc 1498 7d3e b6b1 d03d d749 28be
00000010: 6c5e 203d 0f8c 573a df86 b9bc 2a81 97b9
00000020: b97f 2ebe f26d fb3d c065 89bc d40b 6e3e
00000030: cb1a 31be 875e 3f3d 9da6 acbd dec4 bb3d
00000040: 32b0 7cbe bbbd 28be 03ec 6d3e a82e 4e3d
00000050: 82d2 243e adf5 ffbd 0ce9 193e 2b7b 03be
00000060: e097 e53d 8322 83be f35e 1ebe cb33 4abd
00000070: bb09 b7bc 1c8a 12be e5e6 303e ac27 3f3e
00000080: 1363 11be cf05 213e 1de6 7a3d caa1 b1bd
00000090: 8f2f 143e f397 23be 3a57 47be 28ec 5d3c
000000a0: 6d4a d13d 2e6a 9c3d f280 aa3d 1a5e 573e
000000b0: 316f 01be 7d93 8ebd 4cce 2fbc f388 95be
000000c0: 273f bd3d d790 5b3c 4b58 bfbd 6c96 ff3d
000000d0: b8c4 593e 7959 0cbe ebe6 84be e142 8cbe
000000e0: 8670 b73d edcf d1bc 5985 8ebe eaae 16be
000000f0: 907e 99bd e7fa 63be fa11 733d 6e3b 39bd
00000100: 996a 323e bf01 65bd f7c7 99bd 2108 32be
00000110: 526a d8bd 4cdc d03d 0601 28bd e907 efbc
00000120: 0d61 923e 90ff a5bc 3e36 02be 1c1e 463e
00000130: 229a 033e 7036 b6bd 21fc 873e ceaf b53d
00000140: 3990 00bd c438 35be 2a8f 30be d7db 25be
00000150: 8858 dd3d 10da 3fbe b762 3e3e dda1 38bd
00000160: 73ed 703e 5506 673c 52ff b03d abe4 f13d
00000170: fbc6 0d3e 78e3 393e b5c6 de3d 455e 0b3e
00000180: 32d5 d33d c344 413e a897 e4bd ad22 23bd
00000190: ee57 6cbe 13b2 2fbd 1cb1 2dbe ea99 04be
000001a0: 9267 2dbe 5a94 02be e91b 96bc c829 613d
000001b0: 3632 5cbd 6eac 3bbd bbb9 9d3c 4d16 283c
000001c0: fab9 be3d 2747 2e3e 52ba e4bd 1211 1cbe
000001d0: 61e3 593e 0ad6 053e 8b15 303e bcc8 09bd
000001e0: 25c7 25be 56da 1a3e 3449 c5bd 0274 86bd
000001f0: 8f58 9ebd 6ea5 8a3e 6b03 9cbd db22 0fbe
00000200: 9af5 0a3e 5ed3 84ba 2dc5 15be 38d0 c9bd
00000210: f840 31be e0c3 f3bd 6e9f 1b3e 2660 09be
00000220: 8072 4ebe cf7d 423e d5f9 60be f7e1 833c
00000230: 4426 ce3d d959 4f3b 00f2 16be b4f0 4e3d
00000240: 4357 54be 4a9a 50be bf62 0ebe 7477 4cbd
00000250: 52cf 653d 0a30 debd 2f14 1dbd 0c91 9f3d
00000260: 7875 3a3e 69ac 16be e1c3 0e3e 10fe 083e
00000270: a758 233e 9ac7 3e3e b83f d53d be8a 4fbd
00000280: 84d5 193e 1160 8a3d 6152 853e e023 043e
00000290: f3bc fb3d 499c 263e 1069 45be 1f0c aabc
000002a0: a9b1 dfbb 1c69 2f3e 1a74 c63d 0f40 713e
000002b0: 40c1 06be 28ca 84be 2284 a3bd db1f 7abe
000002c0: ee0c 0fbe 8f55 ca3d 8b1c d2bd 6284 383d
000002d0: 5874 583e ce48 373d 1a13 16be a929 87bd
000002e0: 730b 84bd 5a49 f3bd 96fc 25be c338 903d
000002f0: bbd4 08bc 9dee 38be 3aa6 a5bd 697e ab3e
00000300: a8a6 04be 8bd9 69be 8453 483d 946f 113e
00000310: 986c cc3d a313 e1bd cef3 cabd f98d d63d
00000320: fbde ac3e 325f 943d 01b9 89be 3414 223e
00000330: eea2 41bd b514 5a3d e1ee 1fbe 0990 60be
00000340: 0403 db3d f975 323e 57b1 63bd 67ad 3abe
00000350: 6dce 583d 091d 273d 0618 fabd f9d3 a03d
00000360: 7272 28be e98f 80bd 2fdb 50be 92e2 023e
00000370: dac7 c1bd 4579 83bd 3059 2e3e 3893 553e
00000380: 362b 1e3c cf03 3f3c 0580 99be 11cb bcbd
00000390: f36c edbd dba5 1c3e 62fa 1a3e c07c 363e
000003a0: b12a b3bd d447 ee3d 76ca 44be ac43 343c
000003b0: fd85 72be fc20 013d cdc6 1e3e 0e90 11bd
000003c0: 906c cf3d e454 babd f749 863e e57b 423e
000003d0: 41e6 1d3e 5213 103e 6e3b 0ebe 860d d93d
000003e0: e9ad 073e 082a 80be 8f49 8abc 9428 42bd
000003f0: 1f22 d2bd 2415 9a3d e9a9 fdbd dfea 36be
-0.010420726 0.24765044 0.10190146 -0.16434418 0.039152548 0.00082224695 -0.02264732 -0.000288972
-0.1704091 0.1227683 -0.016772151 0.232467 -0.17295377 0.046721008 -0.084302165 0.09168409
-0.24676588 -0.16478626 0.23234563 0.050337464 0.16095927 -0.12498031 0.15030307 -0.12839954
0.112106085 -0.25612268 -0.15465908 -0.0493658 -0.022343507 -0.14310497 0.1727558 0.18667477
-0.1419795 0.15724872 0.06125461 -0.08673437 0.14471267 -0.15975933 -0.19466868 0.013545074
0.10219274 0.0763744 0.083253756 0.2103199 -0.12640072 -0.06961725 -0.010730337 -0.29206046
0.09240561 0.013401232 -0.093430124 0.124798626 0.21266448 -0.13706006 -0.25957426 -0.27394775
0.08957009 -0.025611842 -0.2783611 -0.14715162 -0.07494843 -0.2226368 0.059343316 -0.045222692
0.17423476 -0.05590987 -0.075088434 -0.17385913 -0.10567154 0.10198268 -0.0410166 -0.029178577
0.2858967 -0.020263463 -0.12716004 0.19347423 0.12851766 -0.08897102 0.26559547 0.08871423
-0.03138754 -0.17697436 -0.17242113 -0.16197143 0.108079016 -0.18735528 0.18592344 -0.04507624
0.2352808 0.014100631 0.086424485 0.11811193 0.13845436 0.18153179 0.10877744 0.1361018
0.10343398 0.18873887 -0.11161739 -0.03982799 -0.23080418 -0.042894434 -0.16962093 -0.12949339
-0.1693404 -0.12751904 -0.018323855 0.054971486 -0.053758822 -0.04581874 0.019253602 0.010259223
0.09312816 0.1701933 -0.1116835 -0.15240887 0.21278144 0.1306993 0.17195718 -0.0336387
-0.16189249 0.15122351 -0.09633103 -0.065650955 -0.07731735 0.27079338 -0.076178394 -0.1397814
0.13570252 -0.0010133793 -0.14625998 -0.09854168 -0.1730994 -0.119025946 0.15197536 -0.13415584
-0.20160866 0.18993305 -0.21970303 0.01609896 0.10065892 0.0031639247 -0.14740753 0.05052252
-0.20736413 -0.20371357 -0.13904856 -0.049918607 0.05610592 -0.108490065 -0.038349327 0.07791337
0.18208873 -0.14714207 0.1394191 0.13378167 0.15951787 0.1863083 0.10412544 -0.050669424
0.15022856 0.067566045 0.26039413 0.1290431 0.122918986 0.16270556 -0.1927836 -0.020757733
-0.0068265987 0.1712994 0.09690113 0.23559593 -0.13159657 -0.25935483 -0.07984187 -0.24426214
-0.13969776 0.098796 -0.102593504 0.045048125 0.21138132 0.044747166 -0.14655724 -0.06599743
-0.06447496 -0.11879225 -0.16209635 0.070420764 -0.0083515 -0.18059774 -0.08088346 0.3349488
-0.129542 -0.22836892 0.04890777 0.1420272 0.0998165 -0.109900735 -0.09909783 0.10476298
0.3376387 0.072447196 -0.2689896 0.1582802 -0.047274522 0.053242404 -0.15618469 -0.21929945
0.106939346 0.17427815 -0.055589046 -0.1823021 0.052931238 0.040799174 -0.12211613 0.078529306
-0.16449907 -0.06277449 -0.20396112 0.12781742 -0.09461947 -0.06419615 0.1702621 0.20856941
0.009653857 0.011658623 -0.29980484 -0.09218419 -0.11593046 0.15297644 0.15134576 0.17821026
-0.08748377 0.11634794 -0.19217858 0.011002462 -0.23683925 0.031525597 0.15505524 -0.035537772
0.101281285 -0.09098223 0.26228306 0.18992575 0.15419866 0.1406987 -0.13889858 0.105982825
0.13249935 -0.25032067 -0.016880779 -0.04740198 -0.10260414 0.075235635 -0.123859234 -0.17863034

conv1_b f4 [16]
00000000: 01a8 ea3c 0296 023c 3ff0 b23c 3fc0 f23c
00000010: 6c34 203d 3a21 643d b484 593d af3b c83c
00000020: 3b22 613c 79d1 ed3c 8802 b5bd a06e 883d
00000030: 361f 543d 0f49 a9bd e3b2 1bbd c42c a23c
0.028644564 0.007970335 0.021843074 0.029632686 0.039112493 0.05569575 0.05310507 0.024442522
0.013741071 0.029030548 -0.088383734 0.06661725 0.051787578 -0.08265888 -0.038012397 0.019796737

conv2_w f4 [32, 16, 3, 3]
00000000: 1fa8 c2bd 03d3 663d 08ca 4d3e 82dc 9b3d
00000010: ab5e 913d 6bd6 5dbe 4243 553e 265d abbd
00000020: 9945 fb3c 172c b3bd 3b6e 9b3d c115 b0bd
00000030: abd9 0f3e f0aa 37be 8e73 f4bb 8f7f b7bd
00000040: 0a38 263d bc45 633d 748f edbd ad33 b1bd
00000050: 0468 323e 4bc9 aabe 0179 7bbe beb6 533e
00000060: 8a03 893c e216 80bd 3fbe a83e 6287 5c3e
00000070: 19f2 9f3e fff3 41bc 2a47 e638 9091 c8bd
00000080: 5273 07be 0316 cf3c 1608 d5bd 471b 81be
00000090: c568 063e 15fc 823d 38ed d6bd b6ab 0d3d
000000a0: 6dfa da3d 418c 7cbd afa8 fc3c ebe5 44be
000000b0: 8faa 3abe 6bfb 683c 4220 6f3b d1f8 393c
000000c0: 97b7 5e3d 8eea 3ebe 8b23 8cbc f560 e3bd
000000d0: 009e 5e3d dea9 543e 92a9 d73d 1e5c 3cbd
000000e0: d607 873d e0fc 4cbe ffea 5e3e a078 513d
000000f0: fdae 833e c99f f33d 6a28 acbe 86a9 ecbd
00000100: f092 c5bd 9c76 14be fb71 123d 8fe4 b43c
00000110: cbfd 9ebd 8079 32bd a3c3 cdbd 66b4 193e
00000120: 7155 173d 84fe 0bbe eb26 14be e833 1bbe
00000130: dbe2 84be 6b9e 7abd 1667 e9bd 20fe 183d
00000140: 2327 83bd df87 bc3d 8e15 e33d bc03 ea3d
00000150: 0171 82bd a45b 713d 1646 803d e083 8c3d
00000160: f0f0 273e 8596 70bd 1c35 11be ebf0 783d
00000170: b094 5c3e 1285 0d3c 1e01 f33d 1421 823a
00000180: 5fa0 363d 7c0e 0ebe 1085 f3bd b0a0 0f3e
00000190: da9b b43d 2907 97be 795c 0fbc 3c8d c9bc
000001a0: 4585 b53e d3a1 f43d 265e 673e 7ffa dc3d
000001b0: 176a b63d d386 863e 7ab5 f33d d649 dc3d
000001c0: e4ef f03d d040 373e 3dfb 20be 9418 6a3c
000001d0: 9aff 1c3d c5a9 93bd 2182 34bc 22fa 15bd
000001e0: 869b 7bbc cbcd 0ebe 249e f03c 2752 c0bd
000001f0: 490e 59bd c551 193e da53 fc3d 1b57 4e3e
00000200: 7fe6 b5bd 3ed2 333e 9f1c a73d 187a 38be
00000210: 251b 803d 40bc 33be b01b d9bd c0dd 1ebe
00000220: c2d4 1b3d 057d 003e c648 253e 0099 943e
00000230: c67c 433d b511 323c c4f3 10bd c961 d7bc
00000240: 3a3a 2dbe 674d e8bd 519e d13d 8027 763a
00000250: 88b5 33be 9523 14bd 1fb5 773d 16c8 143e
00000260: aaa8 263d f3ac 173e 6185 f13d 20e5 99bd
00000270: 8342 dcbd 1507 0ebd 1100 de3d 1653 e3bd
00000280: 5a87 98bd 1b3f 9f3d 883a 013d 38f8 db3d
00000290: 6c2c 2b3e e5ca b7bd edeb 5cbd 3b25 cf3d
000002a0: 4020 41bd 0940 1ebe 4238 a2bd 8997 103d
000002b0: 0cdc e53d be71 27bd cd77 863d 5fcd 9ebd
000002c0: 9398 a4be 9337 a53d 26ba a3be f125 38be
000002d0: 1622 f13d 61e7 543d 5885 5abd 490a b8bd
000002e0: 5080 f4bd 3a9a 7cbe 170d 36bd b5fa 20be
000002f0: 9280 a6bd 5ee4 30be a4be 24be 404f 3fbd
00000300: bd96 2dbe ed5f de3d dd96 593d 35ce 1ebe
00000310: 0f43 7e3c 9c3d e03d 4d2d 003e 1b9d 03bd
00000320: 644f ac3d ad61 723c bc13 0abe 14fa 98be
00000330: 405b 46be 0c09 73be 5a74 63be bc2f 2abd
00000340: 44d4 543c 59d2 ce3d dad8 2b3c 0132 c1bd
00000350: 4ca2 84bd 94fc 263d cd62 61bd 616c 543e
00000360: 3a54 36bd dbbd f43d 0008 a63d fa21 80bd
00000370: 446b 0e3d 529d 553e a332 92bd b2b5 723c
00000380: 97f3 3f3e 194c aa3e 6c12 bc3e ab53 a83e
00000390: 9ec1 453e ee07 af3e 1a56 a53e 230c 0fbe
000003a0: 2d6e 39be e570 4fbd 1a29 c2bd 213a 173d
000003b0: 00c3 f9bb 2fd3 a8bd dc21 8f3d 613c d3bc
000003c0: bc9b 74bc a4c5 bdbd 3921 863d 9f71 bebd
000003d0: f6bb 97bd 4b15 943d a8c6 5bbe 0be1 253d
000003e0: 9cb0 143e a27b 843b f402 68bd a250 913d
000003f0: c678 0abe 5872 e9bd f3e5 a1bd fec3 01be
-0.09504723 0.05635358 0.200966 0.07610418 0.070981346 -0.21663825 0.20826438 -0.08367376
0.030672835 -0.08748644 0.07589384 -0.08597899 0.14047877 -0.17936301 -0.0074600643 -0.08959877
0.040580787 0.055486426 -0.11599627 -0.086524345 0.17422491 -0.333567 -0.24557878 0.2067518
0.01672532 -0.062543646 0.32957646 0.2153602 0.31239393 -0.011837958 0.0001098051 -0.09793389
-0.13227585 0.02527905 -0.10401933 -0.25216123 0.13125904 0.06395737 -0.10494465 0.034587584
0.10692296 -0.061657194 0.030842153 -0.19228332 -0.18229125 0.014220099 0.0036487733 0.011350826
0.054374304 -0.18644163 -0.017106792 -0.111024775 0.0543499 0.20767924 0.1053039 -0.045986287
0.065932915 -0.20018339 0.21769331 0.051140428 0.25719443 0.11895711 -0.33624583 -0.115557715
-0.09647167 -0.14498371 0.03575323 0.022081641 -0.07763251 -0.043572903 -0.1004708 0.15010223
0.036946718 -0.13671309 -0.14467971 -0.1515652 -0.25954327 -0.061186235 -0.11396615 0.037351727
-0.06403949 0.09205603 0.110880956 0.114264935 -0.0636921 0.058925286 0.06263368 0.06861091
0.16400504 -0.058737297 -0.14180416 0.060776632 0.21541095 0.0086376835 0.118654475 0.0009928071
0.044586536 -0.13872713 -0.11890614 0.14026141 0.08818789 -0.2949765 -0.008750075 -0.024603479
0.3545324 0.11944928 0.22594509 0.10789966 0.08906954 0.26274738 0.11899848 0.107562706
0.117645055 0.17895818 -0.1572084 0.014288086 0.0383297 -0.07210115 -0.011017353 -0.0366155
-0.015356904 -0.13945691 0.029372282 -0.09390669 -0.05299214 0.14972599 0.12320681 0.20150416
-0.08881854 0.1756067 0.08159756 -0.18015325 0.062551774 -0.1755228 -0.10600984 -0.15514278
0.0380447 0.12547691 0.16141042 0.2902298 0.047726415 0.0108684795 -0.035388723 -0.026291745
-0.16916743 -0.11342888 0.102352746 0.0009390041 -0.17549717 -0.036166746 0.060475465 0.14529452
0.040688194 0.14812069 0.11793018 -0.07514405 -0.107548736 -0.034674723 0.108398564 -0.11099832
-0.07447691 0.07775708 0.03154996 0.10740703 0.16716164 -0.08974246 -0.053935934 0.10114523
-0.047149897 -0.15454115 -0.079208866 0.035300765 0.11223611 -0.040879957 0.06565819 -0.07754015
-0.32147655 0.080672406 -0.31977957 -0.17983223 0.117740795 0.051978473 -0.053349823 -0.08986337
-0.11938536 -0.24668208 -0.044446077 -0.15720637 -0.081299916 -0.17274615 -0.16088349 -0.046706438
-0.16952033 0.1085814 0.05312239 -0.15508349 0.015518918 0.10949251 0.12517281 -0.03213225
0.0841358 0.0147937955 -0.1348409 -0.29878294 -0.19370747 -0.2373392 -0.22212353 -0.04154943
0.012990061 0.100987144 0.010488713 -0.094333656 -0.06476268 0.04076822 -0.055025864 0.20744468
-0.04451392 0.119502746 0.08106995 -0.062564805 0.034770265 0.20860794 -0.071385644 0.014813827
0.18745266 0.33261183 0.36732805 0.32876334 0.1931214 0.34185737 0.32292253 -0.13969474
-0.18108435 -0.050644774 -0.09480496 0.03692067 -0.0076221228 -0.08243405 0.0698888 -0.025785627
-0.014929708 -0.092662126 0.065493055 -0.09299015 -0.074088976 0.07230624 -0.214625 0.04049782
0.14520496 0.0040430585 -0.05664344 0.070954576 -0.13522634 -0.113987625 -0.079051875 -0.12672421

conv2_b f4 [32]
00000000: 7d21 b7bd 1f67 8cbc 7de3 20bd 2dfe 6abd
00000010: ec6b 1d3d 39fd 9d3d 8979 21bc 6ce8 59bd
00000020: db09 903c 7c6c 5cbd 0ea0 c7bd 52cc f8bd
00000030: d6e1 e3bd 2db2 b3bd 7075 83bc 800a fabd
00000040: 3cb0 b739 7b4b fbbc cc8b 1c3d 638f d8bd
00000050: e679 6fbc 3b15 9d3d a6e8 9b3c be5d b13d
00000060: d329 9c3c 95bc ac3d a7a9 9b3b 1a9b c73c
00000070: b024 4d3d c7b8 c9bc cef5 853d cb4e e0bd
-0.08941934 -0.017139016 -0.03927945 -0.057371307 0.038433 0.07714314 -0.009855636 -0.05320017
0.017582824 -0.053814396 -0.09747325 -0.12148346 -0.11127059 -0.08774219 -0.01604721 -0.12209034
0.00035035785 -0.03067564 0.03821926 -0.10574224 -0.014616465 0.07670065 0.019031834 0.08660458
0.019062912 0.08434407 0.0047504487 0.02436595 0.050083816 -0.024624242 0.06541024 -0.109525286

conv3_w f4 [64, 32, 3, 3]
00000000: ed81 f03d 5e31 1e3d ddd8 c1bb 89f7 30bd
00000010: c843 433e f6a5 a83c e705 e2bd 660e 3a3c
00000020: e7f6 07bd 41cf 57be 5cff 003e 1edd 4c3e
00000030: f1cd b33b e431 e73d bcdb 0dbc a221 afbd
00000040: 8089 0b3d 1f7b 8fbe fa81 69bd f5f8 e2bd
00000050: 5866 24bd b06a c9bd f5c7 96bd 4bb6 993c
00000060: 32ab c5bd df60 2abe e4a9 cbbd 79a9 af3d
00000070: c395 2cbe 9788 9ebc 07be 2fbc 60a1 02be
00000080: 2ec3 133d cf85 0d3e 6583 cabd 10e9 1dbd
00000090: d7c7 58bd 241e 8bbc a570 3dbd 6bd3 0ebe
000000a0: d373 c33d 0530 113d 2e29 84be e3da 133d
000000b0: 950d ab3c 84a0 253e 98ab 94bc 4b79 bcbd
000000c0: 29ee b83e 0c6d 6e3d 1f4f fabd 89eb 523e
000000d0: 459d 83bd a54d 39be 3153 cbbd f62c 4ebe
000000e0: 8dde 8cbd e7ab 2ab9 a373 15be ed63 cabd
000000f0: 998e 2f3e 56e8 d9bc 048d 083d 33c4 9cbd
00000100: bba7 0cbe e784 4fbb 64e8 8ebd bdee 803d
00000110: fc07 e43c 3687 a0be cb79 ebbd d88e 0cbd
00000120: e4f1 3a3e 0139 a93d 456f 813c 5e51 173d
00000130: 1d11 d03d b633 55bd abce ab3c a2b5 253e
00000140: 7b64 fbb9 a427 1d3d 6e22 063e 73fa b0bd
00000150: 5d4d 6fbd 999a 3b3e c7c6 fc3c 635a 41be
00000160: a9d8 3f3d 1b7c 1bbd 4936 17be a0bc 16be
00000170: da46 f8bd bcfd 89bd 8589 19be 9566 63be
00000180: 0734 393e 05ae 0cbb 57d1 a4bc 7810 70be
00000190: 80ab 1ebe e5c3 523d 32e8 a4bd 16e9 d2bd
000001a0: 604c dcbd 83c9 d63d 4e17 8abd 427e c63c
000001b0: e0b9 2fbe 75b0 203d 7e7f bb3c 9b8c e63d
000001c0: 2383 1a3e 9443 c1bd c9ea 53be 98eb 1e3d
000001d0: 085d 82bd a119 353e 7733 16be 6a51 c93c
000001e0: c643 6e3e d7b3 df3c c361 f03d 9bdf 563e
000001f0: df8b 14be 2180 e6bd b6db 523e 797b d13c
00000200: 8e93 02bc 1f44 153d c30c f1bc aacc 6abd
00000210: 20da e53d 2f0b f03d 9ddd 063c 02b9 a7bd
00000220: 7491 f6bd 15e2 a43d 6131 b93d ad86 15bd
00000230: 1b6f c53d e0f7 023b 51e7 11be ec06 993d
00000240: 8450 033e 4574 debd 7300 243d 4ba9 963d
00000250: 4ce9 99bd ee49 833d 21bb 41ba 96f8 81bc
00000260: 510d babd b10e b0bd a48f c23c 256d 0f3e
00000270: ab11 99bd bd20 1e3e e73e 3a3e d30b 45be
00000280: 9d1a 6bbd 6652 69bd ffe0 0cbe c76e 97bd
00000290: 7f30 1c3e ba88 433d 5ad1 a43d f9d9 ae3d
000002a0: 01a3 c7bd 609c 993d 6567 e83d ada1 fabc
000002b0: 166c 0ebd 889e 883c 7bcd 38bd 47b4 303c
000002c0: 0c40 1a3e fc3c eebd 612e 5bbc a150 cdbb
000002d0: 1f47 3a3a 07c7 eabd 86d3 fabd 628e 37bd
000002e0: a0fd 88bd 139a 25bc 6454 45ba 6aed cfbd
000002f0: 93f2 453c 30fb 753b 2a76 623e 1b0a a03c
00000300: 82e1 7bbe db26 3e3d 0e1d 1e3d f651 813d
00000310: c13c 973d a790 3b3c 0ee8 c9bd 9dbd b7bd
00000320: 8e43 f5bd 3ab1 94bd c0bc 753d 2581 083c
00000330: 0810 fdbd 020a 633c 465e d2bd 70e8 863d
00000340: fe02 8e3e f30c 363e 5efc 4dbd 7ab8 f53d
00000350: 4d0f 7bbd f502 7cbe b072 e23d 7051 573e
00000360: 4a4d d2bd 1f75 8d3d 7987 2dbe 8882 c1bd
00000370: bfef 373e 5fa5 283e cdef 0ebe 4ba1 c33d
00000380: d6cb da3d 9c2a a13d c4fc 833a 085e fbbc
00000390: 9aa0 383d 881a a2ba 0e71 463d aad1 9dbd
000003a0: 89df 6b3b a483 c5bd 3d12 ddbd e14f b73d
000003b0: 73f2 7abc 92ef 07bd d0ea 7fbe f7eb 22be
000003c0: b4f6 ef3d dab6 56be def4 c6bd 3abc 3b3e
000003d0: 325b c83d 770c 9a3b 22a6 063e c5ba dd39
000003e0: 9029 cbbd 8e00 ee3b 12b1 d93c 97c7 0d3d
000003f0: c7e3 ae3c 7482 90bd c081 a83d 8771 a03d
0.117435314 0.0386213 -0.0059157447 -0.043204818 0.19068825 0.020586949 -0.11036282 0.011355972
-0.03319445 -0.21075155 0.12597412 0.20006225 0.0054871966 0.11288813 -0.008658346 -0.08551337
0.034066677 -0.2802362 -0.05700872 -0.11082641 -0.040136665 -0.09834802 -0.073623575 0.018763682
-0.096517935 -0.16638516 -0.099445134 0.08577246 -0.16854005 -0.01935224 -0.010726458 -0.12756872
0.03607481 0.13820575 -0.09888343 -0.038552344 -0.052924957 -0.016982146 -0.046250004 -0.13947837
0.09543576 0.035446186 -0.25812668 0.03609742 0.0208805 0.16174513 -0.018148229 -0.09202822
0.36119202 0.058209464 -0.122221224 0.20597662 -0.06426481 -0.18096025 -0.09927977 -0.20134339
-0.06878386 -0.00016276502 -0.14594893 -0.098823406 0.1714424 -0.026600044 0.033337608 -0.076546095
-0.13735859 -0.003166491 -0.06977919 0.06295536 0.027835838 -0.31353158 -0.114978395 -0.034315914
0.18256336 0.08262826 0.015800128 0.036942832 0.10159514 -0.05205127 0.02097257 0.16182569
-0.00047949314 0.038367882 0.13099071 -0.086415194 -0.05842339 0.18320693 0.030856503 -0.18882136
0.046837483 -0.037960153 -0.14766802 -0.14720392 -0.12122889 -0.06737849 -0.14993866 -0.222071
0.18086253 -0.0021466028 -0.020119352 -0.23443782 -0.1549511 0.05145635 -0.080521 -0.10298364
-0.10756755 0.10487654 -0.06742726 0.024230126 -0.1716075 0.039230783 0.022887941 0.11257287
0.15089087 -0.09436718 -0.20695032 0.0387989 -0.063654006 0.17685558 -0.1466807 0.024574954
0.23268041 0.027307434 0.117373966 0.20983736 -0.14506482 -0.112549074 0.20591626 0.025571572
-0.00796975 0.03644192 -0.02942503 -0.05732409 0.11223245 0.11720883 0.008231548 -0.08189584
-0.12039462 0.08050934 0.090426214 -0.03650539 0.09640332 0.001998417 -0.14248396 0.07472023
0.12823683 -0.108620204 0.04003949 0.07356509 -0.07515201 0.06410585 -0.000739025 -0.015865605
-0.09084571 -0.08596552 0.023750134 0.14006479 -0.07474073 0.15442176 0.18188058 -0.19242792
-0.057398427 -0.056963347 -0.13757704 -0.07394176 0.15252875 0.047737814 0.08047743 0.08537669
-0.097478874 0.07500529 0.11347846 -0.030594671 -0.034771048 0.016677156 -0.045117836 0.010785169
0.15063494 -0.116327256 -0.013377757 -0.006265715 0.0007105935 -0.11463743 -0.12247376 -0.04481352
-0.06689 -0.010107535 -0.0007527529 -0.10152705 0.01208176 0.0037533753 0.22115389 0.019536069
-0.24597743 0.046423774 0.038601927 0.06314461 0.07384635 0.011448062 -0.09858714 -0.08971713
-0.11975776 -0.07260366 0.05999446 0.008331572 -0.12356573 0.0138573665 -0.102718875 0.06587303
0.27736658 0.17778377 -0.050289504 0.11998077 -0.06129389 -0.24610503 0.11057031 0.2102716
-0.10268648 0.06907105 -0.1694621 -0.09448725 0.1796255 0.16469334 -0.13958664 0.095522486
0.1068341 0.07869455 0.0010069837 -0.030684486 0.045075037 -0.0012367526 0.04844766 -0.07706006
0.0035991392 -0.09644249 -0.10794494 0.089507826 -0.015316593 -0.033187456 -0.24991918 -0.15910326
0.11716977 -0.2096819 -0.097146735 0.18333521 0.09783019 0.004701193 0.13149312 0.0004229156
-0.09920037 0.0072632497 0.026573692 0.03461417 0.021348847 -0.07056132 0.08227873 0.078341536

conv3_b f4 [64]
00000000: c8e8 e8bd 5a08 03bd 6eeb 9ebb 0587 7c3c
00000010: 70ea 933d 3d2e b23d 822f 213e 7d20 813d
00000020: d7a2 1ebd 400f 5f3d ad7f 763e 45ce f63d
00000030: 4e58 b83d 7aef 473c efde a0bc 404f b23c
00000040: c469 133a 4bd5 debc 4201 1abc 304e c63d
00000050: 2c6b 9abd c93b 15bd 7146 6d3e 9beb 263e
00000060: 0f2b 0dbe a202 0a3e 9b23 a73d adf3 be3d
00000070: a188 e43c 32cb 323e 72e1 3dbd db5e bd3d
00000080: e8a0 8cbc 9f74 113b 489b f73d 17ef 263d
00000090: 8d85 21be a8a1 373e 2ac7 763d e55a 113e
000000a0: eb68 0bbe 3e5d 8fbd 4112 0a3c c6ab fdbc
000000b0: c2db 8bbc acfd 03bd e038 503d 7277 1ebe
000000c0: fa9b c6bc ab6f 113d 7ce7 febc 27e7 d1bd
000000d0: b936 b0bc 45c0 afbc fb9b 1bbd 4c47 76bd
000000e0: 7238 983d b030 12be 5fb7 013e 9a5d 5f3d
000000f0: 20af ca3c 9389 df3d eddd 863d db50 293c
-0.113725245 -0.031990387 -0.0048498427 0.015413051 0.0722245 0.087002255 0.15740779 0.06305025
-0.038729515 0.054457903 0.24072142 0.120510615 0.09001218 0.012203092 -0.019637553 0.021766305
0.0005623365 -0.027201315 -0.009399714 0.09682882 -0.07539973 -0.03643397 0.23171403 0.16300814
-0.13785957 0.13477567 0.08161088 0.09323821 0.027897181 0.17460325 -0.04635758 0.09246608
-0.01716657 0.0022194756 0.120901644 0.040755358 -0.15773602 0.1793276 0.06024853 0.1419483
-0.13614242 -0.070002064 0.008427204 -0.030965697 -0.017072562 -0.032224342 0.05083549 -0.15475252
-0.024244297 0.035506885 -0.03111624 -0.10249167 -0.021510469 -0.021453986 -0.03799055 -0.060126588
0.07432641 -0.14276385 0.12667607 0.054532625 0.02474171 0.10914912 0.06585298 0.010334219

fc1_w f4 [1024, 64]
00000000: 89fd a6bd 1d5d fb3c 9e67 d63c e7de 0ebe
00000010: 4d91 4b3d ff4c 2fbd 37c7 c83a fa17 10bc
00000020: 390f 8a3c 752b 0e3d a8b6 f3bc 0717 07bd
00000030: bd70 62bd 740c 133e 33b2 243d 4f30 b8bd
00000040: 5dbe 013c e74d 79bd 5c13 56bd c167 8ebd
00000050: 878f 74bd ed55 c43d 3f98 89bd f4b7 a13d
00000060: bf4d 853c a3f6 67bd 5d96 29bd 8955 813c
00000070: 2c2f 1abc 0577 a8bd fe3e dbbb 64cc 00be
00000080: 3bc2 1d3c d0eb cdbb 98fd 253d c998 7a3d
00000090: a005 513e 8e7e be3a 54af b0bd 1ef9 e4bc
000000a0: 6eb1 5abd 597e 4f3d 09ec 1b3c afdb c5bd
000000b0: 518a 9bbc 9b50 17bd 39dc 333d d006 c5bd
000000c0: d009 813d 8a9f 6abd c03a 983d 5648 1a3d
000000d0: d1cc 52bd 0822 513d b3cb 373d 778b 4bbd
000000e0: cb16 553d 724a 503d dac4 0ebd ca0c c7bc
000000f0: 4ac7 cabb 6855 cfbb 70a0 50bd ec6a d73d
00000100: 4ec8 c53d c6a9 fc3c d69b 3fbd 88d2 0dbe
00000110: 0b5d ca3d 82c1 4abd aade a9bc 4518 05bd
00000120: 5dee bdbc bcd4 223d cabf 073d 593a a43c
00000130: 6ca7 8e3c 0f60 2d3d a7ea 8cbc c3ed 323d
00000140: 6f32 3b3e 144b cf3c d081 f93a 51c1 e8bd
00000150: 8f5e 56bd a6e0 d5bd 9ae7 043d b15e b2bd
00000160: e70a d9ba 0786 7ebb b9de 573d 9645 eebd
00000170: 9c64 ed39 82f5 053c bf2b b5bc c2e7 94bc
00000180: 2a2b 90bd 12da 76bd 0b50 cd3b 4292 a2bd
00000190: 64d6 113c 070d b93c a920 d3bd 787a 2e3e
000001a0: 7e8c e13c 525e 8abd 7dae 3c3e a3c9 273d
000001b0: 4c94 debc 1098 863d 9f3f 0dbe 0d8f 633d
000001c0: 09a4 58bd ac38 3fbd 5ecc 573c 847b 633d
000001d0: 5f3f 30be fa7d b1bd 7ca8 acbc a4c6 5fbd
000001e0: 6c13 4e3d 1e32 a43d 8282 fabd 727b ac3b
000001f0: 9023 d33d d8f9 7dbc ff4d cbbc a63c 153d
00000200: 4341 aebd 4f3d 223d 2ced 4abc 4e51 64ba
00000210: e6cb 28bd 33b4 753c 4581 a3bd 4a59 76bd
00000220: 64f5 2d3d 1884 a7bd d70b 0b3d 785e 4f3c
00000230: adb5 ba3d 68fb a63d 03d3 db3c 8f40 96bd
00000240: a872 bb3c 0133 45bd 3bc4 26bd d462 d5bc
00000250: 6efc 7d3c 7628 17bd 0602 a33b 8822 87bd
00000260: 5fbe 573d df9b a23b f312 a0bd 4872 37bb
00000270: 557c 7dbd 3271 b4bd 9486 2cbb 6f01 b83c
00000280: f906 b7bc 1a6e fcbc 80be 1bbe ffcc 033e
00000290: 861e 1cbc 063f d7bc ea48 24bd d45c 2abd
000002a0: cce1 4fbc 0314 c23d 51c1 aebd 9364 b33d
000002b0: e5db 543d 6286 4ebd 37b2 2f3d 69b2 afbc
000002c0: c31e ad3d 5ebe bcbc 8091 b93c c9e6 c4bc
000002d0: 2a17 87bd 47bf c2bc 03f7 8d3d 6a5f eebd
000002e0: 6263 a5bd 391e 55bd c35f 8c3c 894a f0bc
000002f0: ac8d 0ebb 23af f83d 8c36 5b3d 2a38 9abc
00000300: 0557 9c3d 46a2 13be 87d4 babd 070f 8dbe
00000310: a1f1 6f3d d481 073d dae8 833d c3c9 853c
00000320: a151 90bc 08f5 703c 6765 0e3d 8236 1bbd
00000330: 9513 19be 72ce 523e 5803 003d 0517 143d
00000340: c1be 903d 124c 733d f42d 013d 127e e03d
00000350: c94f b93d 723d 69bd 7445 a1be 41df 80be
00000360: e5f6 3c3c 6066 5d3c 1b8b 4bbd 4f5a 11bd
00000370: d034 17bd 5b39 1bbd 279d 1fbd bf4d 3dbe
00000380: 4197 263c 8e7c 5c3d 3dd9 0dbe a9ce fb3d
00000390: 8b5c 883e 7ceb 5c3d 1f52 5c3d 5dd4 15be
000003a0: 5de0 22bb e783 533c 4219 81bc aa8f 6abe
000003b0: 7154 543d 959c f6bd e812 95bc a023 a5bd
000003c0: 04dc 7e3c 184b e03a 9251 d3bc a573 cf3c
000003d0: 8e85 21be f61b 8f3c 5f9f 0abe 0b96 663d
000003e0: 42be 5cbc 9eff 4bbb ed68 c83d 1e71 c8bd
000003f0: 47d2 a2be 9883 8938 d751 a8bd 133f 1a3d
-0.08153827 0.030684048 0.026172455 -0.13952218 0.049699116 -0.04279804 0.001531816 -0.008794779
0.016852962 0.034709413 -0.029750183 -0.032980945 -0.055283297 0.14360219 0.040209007 -0.08993589
0.007918921 -0.06086531 -0.052264556 -0.06953383 -0.05970719 0.095867015 -0.06718492 0.078964144
0.016272424 -0.056631695 -0.041403163 0.015787857 -0.009410661 -0.08225826 -0.006690859 -0.12577969
0.009628828 -0.0062842146 0.04052505 0.061180864 0.20412302 0.0014533566 -0.08627191 -0.02795082
-0.053391866 0.050657604 0.009516724 -0.09661042 -0.018986853 -0.036942106 0.043911193 -0.0962044
0.063007 -0.057281055 0.07433081 0.03766664 -0.05146486 0.051057845 0.044871997 -0.04969355
0.05202369 0.050852247 -0.0348557 -0.02429809 -0.006188308 -0.00632732 -0.050934255 0.105184406
0.09657346 0.030842673 -0.046779476 -0.13849843 0.09881028 -0.04950095 -0.020736057 -0.03249385
-0.02318495 0.03975366 0.03314189 0.020047354 0.017413817 0.042327937 -0.017201735 0.04368378
0.18280958 0.025304355 0.001903588 -0.11364997 -0.05233627 -0.10443239 0.032447435 -0.08709467
-0.0016559035 -0.003883721 0.05270264 -0.11634366 0.00045279122 0.008176209 -0.022115586 -0.018176917
-0.07039483 -0.06026656 0.0062656454 -0.07938053 0.008901212 0.02258922 -0.10308964 0.17038906
0.027532812 -0.067562714 0.18425937 0.04096378 -0.027170323 0.06571972 -0.13793801 0.055556346
-0.05289081 -0.046684906 0.0131712835 0.055537716 -0.17211674 -0.08666606 -0.021076433 -0.054632798
0.05031149 0.080173716 -0.12231924 0.0052637393 0.103095174 -0.015501462 -0.024817465 0.036434792
-0.085085414 0.03960925 -0.012385648 -0.0008709625 -0.041210078 0.014996576 -0.079836406 -0.060143746
0.04247035 -0.08179492 0.03394684 0.0126568 0.09116683 0.08153421 0.026834017 -0.07336532
0.02288182 -0.048144344 -0.040714484 -0.026048101 0.015502078 -0.03690382 0.0049746064 -0.06598383
0.052671786 0.004962429 -0.07816114 -0.00279917 -0.06188615 -0.08810653 -0.0026325332 0.022461621
-0.022342192 -0.03081422 -0.15209389 0.12871169 -0.009528762 -0.02627517 -0.0401086 -0.041592434
-0.0126881115 0.09476473 -0.08532966 0.087594174 0.05196752 -0.050421126 0.04289457 -0.021447377
0.08453133 -0.023039993 0.022652388 -0.024035828 -0.06596215 -0.023772849 0.06931879 -0.116392925
-0.080755964 -0.052030776 0.017135506 -0.029332416 -0.0021751923 0.1214278 0.053518817 -0.01882561
0.07633785 -0.14417371 -0.091225676 -0.27550527 0.058580045 0.033082798 0.06440897 0.016331559
-0.017617049 0.0147068575 0.034764674 -0.03789378 -0.14948876 0.20586565 0.03125319 0.036154766
0.070676334 0.05939872 0.031537965 0.10961546 0.09048421 -0.056943364 -0.314983 -0.2517033
0.011533474 0.013513178 -0.04969321 -0.035486516 -0.0369156 -0.037896495 -0.03896823 -0.18486689
0.010167898 0.053829722 -0.13852401 0.12295277 0.26633105 0.053935513 0.053789254 -0.14631791
-0.002485297 0.012909866 -0.015759114 -0.22906366 0.051838342 -0.120415844 -0.018197492 -0.080634356
0.0155553855 0.0017112223 -0.025795732 0.025323698 -0.15773603 0.017469388 -0.13537358 0.056295436
-0.013473095 -0.0031127702 0.09785638 -0.097872004 -0.31801054 6.55718e-05 -0.08218735 0.03765781

fc1_b f4 [64]
00000000: 8447 f63c bba4 e4bb efa3 dcbc facc 3c3e
00000010: 3cba 853d d6f1 e3bb b14f 12bc 9817 4cbc
00000020: 0847 75bc 5984 7fbc e73f 2ebc df8f 35bc
00000030: 92c6 453e c1fa 063d bf93 b4bc 16b5 15bd
00000040: 64bb 833d f3a5 f4bb 8c22 11bc 406e 6a3c
00000050: 74aa 2fbd a164 1e3e 0862 dc3d b402 723e
00000060: ea57 edbc 25c2 34bc d1e3 efbb 4eaf a03d
00000070: 8042 f7bb d5ff c1bc 1fe6 cbbd e5fc b7bd
00000080: dfee c4bc d2ed 01bc 6b5b edbc 63b1 fabc
00000090: 71ec 503d fcd6 78bc bc30 debb 83db ec3d
000000a0: a02d 6fbc 0c86 e33c 6ffb 86bb 5021 c63d
000000b0: cdde 06bc cbb6 553e fe52 07bd a60a 84bd
000000c0: 7f3e e53d a2a7 a93d 704e ee3d 5095 bbbc
000000d0: 7a85 11bd fe40 34bc da33 f73c 77db 01bd
000000e0: 75bc 35bc a781 c2bd 06d9 103d e212 1fbb
000000f0: 6e49 893c 9bce cb3d 5a80 b2bc 0d85 a63d
0.030063398 -0.006977645 -0.026933638 0.18437567 0.06529662 -0.0069563193 -0.008930133 -0.012456797
-0.014970548 -0.015595519 -0.010635353 -0.011081665 0.1931403 0.03295398 -0.022043107 -0.03654965
0.06432226 -0.0074660718 -0.008858334 0.014308512 -0.042887166 0.15468074 0.107608855 0.23633844
-0.028972585 -0.011032616 -0.007320859 0.07845937 -0.007545769 -0.02368156 -0.099560015 -0.08983783
-0.024039684 -0.007930236 -0.028974256 -0.030602163 0.051006738 -0.015187975 -0.006780712 0.11565306
-0.01459828 0.02777388 -0.0041193287 0.096743226 -0.008231831 0.20870511 -0.033038132 -0.064473435
0.11193561 0.082839265 0.116360545 -0.022898346 -0.035527684 -0.0110018235 0.030176092 -0.03170344
-0.011092295 -0.094973855 0.03536322 -0.002427273 0.016758647 0.09951516 -0.021789718 0.08130846

fc2_w f4 [64, 10]
00000000: 43d8 94bd bb02 da3d ec83 8c3e c0aa 7d3e
00000010: a0ac eabd f1d1 87be ff6a cc3e 1bb8 4f3e
00000020: 6922 95be 6205 36be 9395 883c df1d bcbd
00000030: 7edc 6b3e 8b1d 8d3e e881 833e a29b b93e
00000040: 29a4 bebe 3860 d03d c14c a2be 1a00 b53d
00000050: f356 823e f3b6 763e 8e3d b33d 1606 46be
00000060: 2908 683e c9bc 633e cecb 5c3e e90b 1ebd
00000070: 6c7c ecbc 052f 4a3d af47 0fbe 2c34 4bbc
00000080: 431b e2bb 46bb b2be cfce ae3e eb4f 60bd
00000090: d510 cd3e 4ca2 57be fde2 21be 554a 8dbe
000000a0: 9de0 85be 7009 843e af60 aabe d484 dbbc
000000b0: 6e65 6abe a60a 893d 55b9 823e 118b 82be
000000c0: ebd1 c53e d16c a13e 87a0 7ebd 6605 39be
000000d0: 555a abbd 8b6c d43d 1516 043a 7c1c eebd
000000e0: c509 53be b276 063e e359 ddbd 8f36 803e
000000f0: c799 aabd c52c 5abe 85d8 0bbe b535 7c3e
00000100: e2b7 06be 457f bc3c 332e 8f3d cfad 253e
00000110: aa1d 8a3e c400 793d 0d14 88bd c38e 4b3e
00000120: 3ceb 75be 9c8a 43be 1381 8bbd e23d 6f3e
00000130: e929 73be 24cd 38bd b303 0b3e bbf3 0f3e
00000140: e351 1e3d 1b46 45be 05c2 433e aaeb 093e
00000150: debb 31be a7fc 843e 8e8f e0bd 1651 aabc
00000160: 3552 a3bb da73 003e db47 fc3d a46a 43be
00000170: f6c4 62bd 8cd8 84be c21e 93be 30ce 94be
00000180: 817a bbbd 608c 1ebe f5ea 81be d734 bf3d
00000190: db0a 653e 9e35 eabd b3aa dabd a6d1 233e
000001a0: 672f 30be 6176 2ebe 758c d4bd d146 1bbe
000001b0: 8bf7 e7bd 9b15 2c3e 5541 3c3d f272 053e
000001c0: 23de 073d 7ce7 c1bd 42b9 7fbd ba21 643e
000001d0: 1bdf a03d 052d c13d ec48 b0bc 57ea 06be
000001e0: 2b5a 213c 8e61 f9be e05b 0f3d 4d7a 993e
000001f0: 1335 a63e b552 96bb bf13 b43e f183 8dbe
00000200: adb1 12bc c1c7 92be 282a a3be 4b0a d9be
00000210: be12 a63e 86ab fb3c 5276 013d 92f8 603e
00000220: d0d8 09be ad47 453e 9c90 633e 95de 1cbe
00000230: 2974 1bbe f66f bbbd 0500 ed3d a193 743e
00000240: 715f 0e3b 637f 59bc 79c0 153e 46e1 f43c
00000250: b264 023e ae96 203b f9f4 8fbe 1f1d 7cbe
00000260: 0d39 1fbb 094b 09be 117b e63c cdfa 053e
00000270: baab 47be d1b5 69bd dee7 e93d 7883 e4bd
00000280: 4afa 89be b948 ab3e a7be 9cbe 1052 6b3e
00000290: de8e f1bd 19df 063e 5dab 03be 0e87 14be
000002a0: 2c49 c93d 8bf3 a73d be58 a5bd 11da e6bd
000002b0: a86f 383e 7d21 803e cd87 503e d24d 27be
000002c0: 1ee2 3cbe 40bd 94bd 8218 66be 2f59 873e
000002d0: ea1e c9bc a361 323d 7471 86bd 61ba a43d
000002e0: 05dc 52be 424f 6dbd 7d05 433e 4b0d 81be
000002f0: 792f 54be 22a4 5c3d bc81 5b3e fe52 993e
00000300: 72ba ae3d ff1b b63d dde7 ee3c 2904 79be
00000310: edcb 85be 98cf 2bbe 1b0d ad3d d8b9 87be
00000320: 0aff b2be e7b5 66be 96e1 41be afdb e1bd
00000330: 7aff e73d 77c2 f63c 351a 80bd 49a7 10bd
00000340: 7f83 a3be 33eb dcbc 791e da3e 398f 7dbe
00000350: f348 833e 4033 65be 25ea 873e db89 66be
00000360: ea5c 533e c4be 9fbe 47f4 043d 140d 85be
00000370: c7c7 973d 829d 58bd 4cc9 d23e f163 a5bc
00000380: 3209 9cbe 272a f3bd f1da 113f cf6b 0ebe
00000390: f854 0ebe 4d40 9cbe b67d 89be de07 7fbe
000003a0: dc25 063e 2dec 9c3e f6a7 003f edb3 fabd
000003b0: c027 57be 7822 fcbe 9638 99be 6954 5bbe
000003c0: 9d8b 6e3d 5c2a e0bc be44 533d f32f 24be
000003d0: 1e93 4f3e e605 293e b7c9 153e e20e 02be
000003e0: 9235 0a3d 48ec 38bd 1cce a53c d01d 193e
000003f0: 3cc6 873d e64a 7bbe c399 81bd 3056 84be
-0.07267811 0.10645052 0.27444398 0.24772167 -0.11458707 -0.2652736 0.39925382 0.20285074
-0.29127815 -0.17775491 0.016672885 -0.09185385 0.2303333 0.27561602 0.25685048 0.3625155
-0.3723462 0.10174602 -0.31699184 0.0883791 0.25456962 0.24093227 0.08751975 -0.19338259
0.22659363 0.22239985 0.2156212 -0.038585577 -0.028867923 0.049361248 -0.13992189 -0.012402575
-0.0069002225 -0.34908503 0.34142157 -0.054763716 0.40051904 -0.21058005 -0.15809245 -0.27595773
-0.2614793 0.2578845 -0.3327689 -0.026796736 -0.22890255 0.06691484 0.25532022 -0.25496724
0.38636717 0.31528333 -0.06216481 -0.18068466 -0.08366839 0.103722654 0.0005038691 -0.11626527
-0.20609196 0.13131216 -0.1080816 0.25041625 -0.08330112 -0.2130614 -0.13656814 0.24629863
-0.13156083 0.023009906 0.06991234 0.16179584 0.26975757 0.060791746 -0.066444494 0.19878678
-0.24015516 -0.19095844 -0.06811728 0.2336345 -0.23746456 -0.045117512 0.1357563 0.1405782
0.038652312 -0.19265024 0.19116981 0.13468805 -0.17356822 0.25974008 -0.10964881 -0.020790618
-0.004984165 0.12544194 0.12318393 -0.19083649 -0.055363618 -0.25946462 -0.28734404 -0.2906356
-0.09154225 -0.15483236 -0.2537457 0.0933625 0.22367422 -0.11436008 -0.106770895 0.15997943
-0.17205583 -0.17037345 -0.103783526 -0.15163733 -0.11326512 0.16805117 0.045960743 0.1303213
0.03317083 -0.0946798 -0.062432535 0.2227849 0.07855054 0.09432415 -0.021519147 -0.13175331
0.009848158 -0.4870724 0.03499973 0.2997612 0.32462367 -0.004587496 0.35171315 -0.27639726
-0.008953494 -0.28668025 -0.318681 -0.42390665 0.32436174 0.030721437 0.03160698 0.21969822
-0.13461614 0.19265623 0.22223133 -0.15319283 -0.1518103 -0.09152214 0.11572269 0.23884441
0.0021724368 -0.013275 0.14624204 0.029892575 0.12733725 0.0024503875 -0.28116587 -0.24620484
-0.002429548 -0.1340753 0.028134855 0.13083954 -0.19499102 -0.05705816 0.11421178 -0.11157888
-0.26948768 0.3345392 -0.30614206 0.22980523 -0.11794828 0.13171043 -0.12858339 -0.14504644
0.098284096 0.08200749 -0.08073567 -0.112720616 0.18011343 0.2502555 0.20364304 -0.1633828
-0.18445632 -0.07262659 -0.22470286 0.2643523 -0.024550874 0.043550145 -0.06564608 0.080433615
-0.20591743 -0.057936914 0.19045062 -0.25205454 -0.20721234 0.053867467 0.21436208 0.2994613
0.08531655 0.088920586 0.029163295 -0.24317993 -0.26132146 -0.1677841 0.08449765 -0.26508975
-0.34960204 -0.22530328 -0.1893371 -0.110282294 0.11328025 0.030122025 -0.062549986 -0.035315786
-0.3193626 -0.02696762 0.42601374 -0.24761666 0.25641593 -0.22382832 0.26545826 -0.22513525
0.20640913 -0.3120023 0.032459524 -0.2598654 0.074111514 -0.052884586 0.41169202 -0.020189257
-0.30475765 -0.11873274 0.56974703 -0.13908313 -0.138996 -0.30517808 -0.26853722 -0.24905345
0.1310038 0.30648938 0.5025629 -0.12241349 -0.21011257 -0.49245048 -0.29925984 -0.21418919
0.058238614 -0.027363949 0.05157923 -0.16033916 0.20270965 0.16506156 0.1462773 -0.1270099
0.033742495 -0.04514721 0.020239882 0.14952779 0.06629607 -0.2454029 -0.06328156 -0.25847006

fc2_b f4 [10]
00000000: 6fa7 99bd deb6 98bd 381b 57bd 5710 993d
00000010: 1307 043e 25c6 8fbd ec9b 183d abd3 b6bd
00000020: 2e72 ac3d 1bb7 e43c
-0.075026385 -0.07456754 -0.052516192 0.0747382 0.12893324 -0.07020215 0.037258074 -0.08927091
0.084202155 0.027919343
