others/weight_4.npy (npy, 23168 bytes, 1 tensors)

array f4 [576, 10]
00000000: c6ce 263d d0c0 8abe 1c07 eabc 71aa 0d3c
00000010: abe9 283e 399f 3abe 041b 80be 8e6c 863e
00000020: 6e5c 2a3e 50da 363e 6b11 323d 75b1 a23d
00000030: 50ea 8b3d 2b9b 893d b366 1b3d 62e7 783d
00000040: f164 de3d e399 7bbe e6f3 70be e5fb 9cbe
00000050: 5693 a8be 99b1 0abb d2fc 1d3c 0506 883e
00000060: 3b17 743e 748b c3bc cbe0 593c 4041 7bbd
00000070: 3a9d 6ebe dfc0 0a3c a7da e23d d8d9 093d
00000080: 0bea b9bd 1e8c 803d 3cb0 593d e6d8 56be
00000090: 1b0b e0bc 1511 dfbd 40d7 06bd a31c 9c3c
000000a0: b64d 95be f12d 043e f6d6 84bd 8f38 a4be
000000b0: acea 0ebe fe78 6f3d 76f4 d73b 3f64 063e
000000c0: f8cc 183c 29b0 703e 44a6 bc3c f1c1 1b3c
000000d0: b474 54be 3948 1fbc ab74 87bc 4ee2 803d
000000e0: cfd3 72bd 5b27 db3c 1b19 eb3d dc53 3f3d
000000f0: 8360 ad3d baa0 8abd e6fd d1bd 20f9 bebd
00000100: f495 bbbd b9ba 9ebe ed61 b8bc 8abc 2e3d
00000110: d6a0 8b3e 82df 1d3e 89fa b8be 535c 703d
00000120: 235b 493e 4b1d 36be 62b7 133c 8635 993c
00000130: b470 b93d 8aed d8bd 6152 aabe 9fd5 45bd
00000140: 8a22 97bd 459d 85be 89e5 853e b954 453d
00000150: 7228 83be 9308 3a3e da3a 2a3e c128 60be
00000160: 7a13 9dbe 670d b7bc 27f0 b2be 7300 95ba
00000170: 949e 103c 3654 b8bd ad29 ccbd 90c3 bb3e
00000180: e32e d63b 8261 13bd ce94 06be a2f5 473c
00000190: 7fc0 8f3d c9ba 243e 5ab4 6d3d 41f3 af3d
000001a0: 517a 02be e495 433d f75b d6bd bd09 203d
000001b0: bf34 213d ff6e 0a3e d951 a6bd 0fae 0f3c
000001c0: a25b 323e 5666 31bd 4721 04bd dd38 ee3d
000001d0: ccac fabd 33b9 dcbd c0a2 a03d 4c88 93bb
000001e0: 270e dbbd 42ac ab3d c520 d7bd c337 a9bd
000001f0: 9a91 f9bd 889d c53d 0777 c0bc 8eb7 eebd
00000200: a0a6 74bd 3839 483e cf82 bb3d ff86 71bc
00000210: 7a06 b2bd d234 653d 582e 053e d996 21be
00000220: 74ad 9dbe 2226 04be fd58 643e c2fb 15bd
00000230: 2d64 b83d 3ea5 ae3d 5a26 68be 7442 35b8
00000240: 8152 943e a70f a63d 938d 5abe 5e5d e73c
00000250: 85c9 37bc bb3b 37be cdfb 253e 24ca 0cbe
00000260: bcbe 963d ba41 063d 6988 f43c 215f 1dbe
00000270: a50f 83be ea1c 093b 9385 2f3e ac74 46bd
00000280: ee31 c13d b668 8bbe 9743 9ebd 5b5e 59bc
00000290: a913 073d 89f2 0fbd 18ea 903c cf9e e43d
000002a0: 4721 67bd 24b4 0a3e f5c9 a5bd ec92 8a3d
000002b0: 5fe1 cd3d 9c04 0a3d 08a1 3c3d 1f89 903d
000002c0: 3c17 ffbc 1f7d d0bd 1e60 44be 6cc9 6bbe
000002d0: 0b8c e3bd f60f d93c 3291 9cbd d8f5 313e
000002e0: 7f34 843e b21d 28be 26b5 443d d718 9cbd
000002f0: 409a 3dbe 172b 223d 64e1 af3d 2f34 2ebd
00000300: ccc4 c7bd bd98 683a 9891 27bc a21a edbd
00000310: 46bc 43bc ded6 cfbd e465 653e fa09 063e
00000320: 7026 c0be 8614 903c f324 5abd 32ae 31bb
00000330: 7312 31be d402 823e 32bf a13d 17aa 46bd
00000340: 0954 2abe c739 423e 5c02 a8bd dc75 173d
00000350: d5d9 9c3d 2075 f2bd 21d1 a0bd 9814 763d
00000360: dea2 473d bd3d 3b3b d2a2 4abd 1969 933d
00000370: ab7a eabc d7bc 733d 296d bd3c 89fe a73c
00000380: 1389 01be 6c5a 00bd 65e0 bbbd fe23 663d
00000390: 9451 7b3e 94c8 af3c 57b1 83be be3f 953d
000003a0: 01d8 223d f789 d83d c0d7 4fbc a356 a43d
000003b0: 7161 183e 3e19 e4bd cd85 debd f634 0d3d
000003c0: 20bd 083e c4ec 46bd 2f59 c43e cc1a a4bd
000003d0: b07b c4be 606a 103e 5518 203a 7db0 77be
000003e0: c633 73be a1d1 b83d bed4 20be d08a 4e3d
000003f0: 2f5e 693e 41e0 c13d 1ebb 7ebe 752e 4a3e
0.04072454 -0.2710023 -0.028567843 0.008646593 0.16495387 -0.18224801 -0.2502061 0.26254696
0.16636822 0.17856717 0.043473642 0.079440035 0.06831801 0.06719049 0.03793974 0.06076754
0.10859097 -0.24570422 -0.2353054 -0.3066093 -0.32924908 -0.0021162985 0.009642797 0.26567093
0.23836987 -0.023870207 0.013298224 -0.061341524 -0.23302165 0.008468836 0.11076861 0.033655018
-0.09077843 0.06276725 0.053146586 -0.20981178 -0.027349046 -0.1089193 -0.032920122 0.019056624
-0.2916085 0.1290815 -0.06486313 -0.320744 -0.13956708 0.058464997 0.0065904213 0.13124178
0.009326212 0.235047 0.0230285 0.009506688 -0.20747644 -0.009721809 -0.016535124 0.06293164
-0.059284028 0.026752165 0.11479398 0.046710834 0.08465674 -0.067689374 -0.102535054 -0.093248606
-0.09159461 -0.31001833 -0.022507632 0.042660274 0.27271146 0.15417293 -0.36128643 0.058681797
0.19663672 -0.17784612 0.00901589 0.01870228 0.090546995 -0.10592182 -0.33265975 -0.048299428
-0.07379635 -0.2609655 0.26151684 0.0481765 -0.25616795 0.18167333 0.16624013 -0.21890546
-0.30678922 -0.022345258 -0.34948847 -0.0011367932 0.0088268705 -0.09000437 -0.099688865 0.3667264
0.006536351 -0.035981663 -0.13142702 0.0122045595 0.070191376 0.16086878 0.058033325 0.08591319
-0.12741973 0.04775037 -0.1046676 0.039071787 0.039356943 0.13518904 -0.0812108 0.008769526
0.17417768 -0.043310486 -0.0322583 0.116319396 -0.1223999 -0.107775114 0.07843542 -0.004502332
-0.10696059 0.08382465 -0.10504297 -0.08262589 -0.121859744 0.09649187 -0.023494257 -0.11656104
-0.05972922 0.19553077 0.09155809 -0.014741658 -0.086926416 0.055958577 0.1300596 -0.157802
-0.30796397 -0.12905172 0.22299571 -0.036617048 0.09003482 0.08527611 -0.2267088 -4.3215652e-05
0.28969195 0.08108454 -0.21343069 0.028242763 -0.01121748 -0.17893879 0.16209336 -0.13748986
0.073605984 0.032777525 0.029850202 -0.1536832 -0.25597873 0.0020921775 0.17140798 -0.04845111
0.094333515 -0.27228326 -0.077277355 -0.013267125 0.032977734 -0.03514341 0.01768975 0.11163103
-0.05642822 0.1354528 -0.08095161 0.067663044 0.10052752 0.033695802 0.04605201 0.07057404
-0.031139009 -0.10180115 -0.19177291 -0.23026055 -0.111106955 0.026496869 -0.07644881 0.17378938
0.258213 -0.16417578 0.04802432 -0.07621925 -0.18515873 0.039591875 0.08587912 -0.042530235
-0.09754333 0.00088728574 -0.010227583 -0.115773454 -0.011946743 -0.101484045 0.2240215 0.13089743
-0.37529325 0.017587911 -0.053257894 -0.0027111885 -0.17292194 0.25392783 0.07897796 -0.048502054
-0.1663362 0.18967353 -0.08203575 0.036977634 0.07658736 -0.11838746 -0.07852388 0.060078233
0.048739307 0.0028570734 -0.049471684 0.0719778 -0.028622946 0.059506264 0.02312334 0.020507114
-0.12649946 -0.031336233 -0.09173659 0.05618667 0.24542838 0.021457948 -0.25721237 0.072875485
0.03975678 0.1057319 -0.012685716 0.08024337 0.14880921 -0.11137627 -0.10865364 0.034474336
0.13353395 -0.04856564 0.38349292 -0.080129236 -0.38375616 0.14103079 0.00061071414 -0.24188419
-0.23750219 0.090243585 -0.15706155 0.05042535 0.22789834 0.09466601 -0.24876067 0.19744284
