others/weight_8.npy (npy, 18560 bytes, 1 tensors)

array f4 [3, 3, 16, 32]
000000 de 4d 7e bd 23 d1 8b be 10 37 1e be 59 8e cd bd
       -0.06208598 -0.27307996 -0.15450692 -0.10036916
000010 aa cf fb bd c4 40 ee bc 8f 80 5c bc f4 7d 65 be
       -0.12295468 -0.029083617 -0.013458385 -0.22411329
000020 46 9f 05 3e 6e 50 d0 bd b7 8b 88 be 8c a4 89 be
       0.13049039 -0.10171591 -0.26669094 -0.26883352
000030 28 93 97 bc 93 fa 21 3d 38 1f 5e 3c d7 f4 41 bd
       -0.018502787 0.039545607 0.013557248 -0.047352638
000040 25 48 75 3e e2 b8 2b 3c 68 26 ac bd ab cc 2d bd
       0.23953302 0.010481091 -0.08405763 -0.042431515
000050 86 f1 95 3c 8c 09 b0 bd a2 f5 01 3e 2b 10 93 bd
       0.018303644 -0.08595571 0.12691358 -0.07180818
000060 40 2b a1 be 4d 9d 3f 3d 49 4f b3 3c 1b 2e 83 be
       -0.3147831 0.046780873 0.021888392 -0.25621113
000070 b6 c3 a8 3d 2c 30 ef bc fb 94 52 be 7e 72 51 3e
       0.08240454 -0.029197775 -0.20564644 0.20453832
000080 3f d3 a6 be 2b 11 66 3d 14 d5 75 3e 74 85 56 3d
       -0.32583043 0.056168716 0.24007064 0.052373365
000090 3e 31 18 3e d3 30 5b be 10 3d f9 bd a1 0d 8e 3d
       0.14862534 -0.21405344 -0.1216985 0.06936193
0000a0 19 a2 14 be 1f e5 76 bd b7 a3 94 3d 3c 1a e1 bd
       -0.1451496 -0.0602771 0.07257789 -0.10991332
0000b0 a0 5c 66 be 54 f6 7a bd 53 36 85 bc ab 6d 44 be
       -0.22496271 -0.061270073 -0.016261255 -0.1918246
0000c0 ce 4a 84 bd fb 3b 4f 3e ae 26 a4 be 24 8e 2b 3d
       -0.0645958 0.20237724 -0.3206076 0.041883603
0000d0 8a fd e0 3d a4 58 50 3e 36 92 2a be 4c 95 ae be
       0.10985859 0.20346314 -0.16657338 -0.3409828
0000e0 df 40 9a be d0 28 14 3e 7d 02 94 3a a2 22 5c 3c
       -0.30127618 0.14468694 0.0011292245 0.0134359915
0000f0 76 bf 04 3e 96 3c b9 bc 86 0f b0 bd c1 8c 06 3b
       0.12963662 -0.022611897 -0.08596711 0.0020530673
000100 11 69 7a be 8d 90 73 3e b3 0e 00 3e b5 93 8c 3e
       -0.24454142 0.2378561 0.12505607 0.27456442
000110 d4 76 bf 3d be 5c 06 3e 5a b7 fb bd 5e 32 f7 3d
       0.093488365 0.13121316 -0.12290831 0.12070154
000120 1a 00 b4 bc d0 f2 ce 3e 0e 7c 5b 3e c2 0e e3 bc
       -0.021972705 0.40419626 0.21434042 -0.027716998
000130 33 db eb bc 7c 0a 15 bd aa 80 1d 3e a4 29 39 3b
       -0.028791046 -0.03638695 0.15381113 0.002825358
000140 0f fc 84 be 5e c7 82 3c e3 0d 15 be 97 92 3f 3e
       -0.25973555 0.015964206 -0.14556079 0.18708263
000150 47 99 81 be 2e c6 d0 3d 57 e8 0d 3d 89 88 69 bc
       -0.25312254 0.1019405 0.034645405 -0.014253744
000160 e7 70 99 be 11 0b 87 ba 35 66 a5 bd 96 ff 02 3e
       -0.2996895 -0.0010302981 -0.08076135 0.12792811
000170 8c 98 c0 3d d5 c6 cc 3b b0 b3 98 be 3b d7 59 3e
       0.09404096 0.0062492886 -0.2982459 0.2127351
000180 74 d4 19 3e 9f 5d 93 bd 6a 73 10 3e ee 72 34 3e
       0.1502245 -0.07195591 0.14106527 0.17621967
000190 17 47 93 be 18 bd 6b 3d d8 70 0e 3e ca 8e 89 be
       -0.28765175 0.05755338 0.13910234 -0.26866752
0001a0 4c 66 cf bd 18 79 64 3d 38 19 31 3d 46 71 98 be
       -0.101269335 0.055779546 0.04323694 -0.2977392
0001b0 50 fa b8 3d 5a 5d 72 3e d8 02 a3 be f7 bc 84 3d
       0.09032118 0.23668423 -0.31838107 0.06481355
0001c0 ce b6 3a 3e 3d c3 03 be 77 2c 01 bd 63 89 64 3d
       0.18233797 -0.12867446 -0.031536546 0.055795085
0001d0 3e c2 58 bd 4b c8 10 3e 6c e8 5a 3e 6e 2e 6f be
       -0.05291962 0.14138906 0.21377724 -0.23357555
0001e0 a1 59 7e be 72 9a 37 3d 69 c5 4b be bb 0e a3 bc
       -0.24838878 0.044825025 -0.19899525 -0.019904485
0001f0 4c 8d da 3d 7d 6b ba 3c 54 f3 59 be 1c 3f 99 3e
       0.106714815 0.022756333 -0.21284229 0.2993096
000200 78 a7 e8 3d c8 d0 e4 be b0 9f 1d bd f2 60 88 3e
       0.11360067 -0.44690537 -0.038482368 0.26636463
000210 72 21 1f 3e 08 a9 5d be cb 9b 48 3e 7a a6 b7 be
       0.15540102 -0.21646512 0.1959068 -0.358692
000220 b8 2b d8 3b b7 f9 c1 bd 0d 3e 96 be 2c 23 87 be
       0.0065970086 -0.094714575 -0.29344216 -0.26394022
000230 61 10 2a 3e 7d 1b 23 3e e4 8a 40 3e 6f e9 44 3d
       0.1660781 0.15928455 0.18802983 0.048074182
000240 85 a8 95 3e 10 b8 f8 bb 1b 47 2f 3e 64 9c 48 3e
       0.29230133 -0.0075903013 0.17116968 0.19590908
000250 46 35 91 be f2 9b c9 3d 13 92 c2 bc c9 73 07 be
       -0.28360957 0.09844197 -0.023751294 -0.13227762
000260 8f 42 33 be 2d c0 a0 3e f3 de 45 3d 46 35 08 bd
       -0.17505859 0.31396618 0.048308324 -0.03325393
000270 b0 bb 8f be 16 82 26 be d1 7b 78 bd 82 43 19 3f
       -0.28072882 -0.16260561 -0.060664956 0.59868634
000280 7e 70 a5 bd 7e f4 92 3d a1 c8 b2 3c d4 cf 9d 3e
       -0.08078097 0.071755394 0.021824183 0.30822623
000290 90 e0 1a 3e f9 d2 5f be 1d 4f 2b be b3 ad c3 bd
       0.15124726 -0.21857823 -0.16729398 -0.09554615
0002a0 f4 0c 3d 3b 18 5d 4c 3e e6 45 65 3e e6 17 25 be
       0.0028846832 0.19957387 0.22389945 -0.16122398
0002b0 56 16 bc 3e 1d d7 ec 3c 90 1a 3a 3e b8 bf c3 bd
       0.3673579 0.028911168 0.18174195 -0.09558052
0002c0 7c 6b be 3d b4 82 b0 bc 0a 33 63 3d 51 9b b1 3d
       0.09297845 -0.0215467 0.055468597 0.086722024
0002d0 f5 02 33 be e6 66 51 3d ec ed 96 be 59 c2 26 bd
       -0.17481597 0.051123522 -0.29478395 -0.040712688
0002e0 d1 15 d7 bc f8 af 31 bc a1 4e b5 be 5b fe 1c 3e
       -0.02625552 -0.010845177 -0.35411552 0.15331404
0002f0 e1 81 3e bc 64 00 81 be ed ce 8c be 9e 6a ea bd
       -0.011627645 -0.2519561 -0.27501622 -0.11446117
000300 84 c1 2f be 78 94 bd bd 09 76 be 3d b5 eb 76 3e
       -0.17163664 -0.09256834 0.09299857 0.24113353
000310 8b fc 3c 3e c2 3f 01 3d 7c 66 ed 3d bf 10 2a bd
       0.18455712 0.031554945 0.11591813 -0.041519877
000320 cf 91 4f bd 65 b6 d7 be 80 73 68 bd ec a4 4b be
       -0.050676163 -0.42131343 -0.056750774 -0.19887131
000330 e7 f5 05 bf da 15 3c 3e fc a4 5f bd 6b 5f 7f bd
       -0.5232834 0.1836771 -0.0546007 -0.062346857
000340 8b 65 9f 3d 9b 11 4f bd 14 dd 8d 3d 65 b1 65 be
       0.0778304 -0.0505539 0.06926933 -0.22430952
000350 c9 6a 63 3e 52 4f 7f 3e be 37 17 3e 87 23 e5 3d
       0.22208704 0.24932602 0.14767358 0.11188417
000360 56 63 62 3d 3a af 18 3e 85 c3 14 3d ed 09 8c bd
       0.055270515 0.14910594 0.036319274 -0.06837831
000370 90 64 fe bc c8 78 ad 3d 1b 98 a6 be af d2 bb bd
       -0.031053811 0.08470303 -0.32537922 -0.09171044
000380 b9 32 b2 be 3a a8 0a 3c 9f 49 18 be 73 c3 0c bd
       -0.34804323 0.00846296 -0.14871834 -0.034366082
000390 85 5a 75 3e 45 40 73 3d 71 06 da 3e f9 3e 2c 3e
       0.23960312 0.059387464 0.4258304 0.16820897
0003a0 c2 88 04 be 78 b2 f8 3d 50 af 51 bd 4d 24 b4 3e
       -0.12942794 0.12143415 -0.05119258 0.35183945
0003b0 32 52 4d bd a9 a3 9c 3c 73 c3 4d bd 1f 2e ac 3d
       -0.050127216 0.019121008 -0.050235223 0.084072344
0003c0 00 9c 08 be 0a fa 83 be ef b9 05 be cb 4f 6b be
       -0.1334076 -0.25776702 -0.1305921 -0.22979657
0003d0 6d ff 7d be c1 0e 6b be 59 ff c5 bd ee b1 17 3e
       -0.24804468 -0.22954847 -0.09667844 0.14813969
0003e0 e6 a3 02 3d 93 d3 2c 3e 8a b3 45 bd 9e 2c e2 bd
       0.031894587 0.16877584 -0.048266925 -0.11043666
0003f0 c7 ae 45 3e 6a 21 0a bf 21 84 42 be ba b2 b4 3d
       0.19304954 -0.53957236 -0.18995716 0.08823152
