others/weight_0.npy (npy, 992 bytes, 1 tensors)

array f4 [3, 3, 3, 8]
0	0xbc7022b8	-0.014656715
1	0x3dc00596	0.093760654
2	0x3d9c4ee2	0.07632233
3	0xbe726ee2	-0.23675111
4	0x3eb27f8f	0.34862944
5	0xbe54b849	-0.20773424
6	0x3e0af035	0.13568194
7	0x3e5db2e1	0.21650268
8	0x3dc690c7	0.09695583
9	0xbe48d834	-0.19613725
10	0x3e6358d8	0.2220186
11	0x3db0507f	0.086091034
12	0xbdeb553d	-0.11490867
13	0x3d04f2a7	0.032457974
14	0x3d70fc81	0.058834556
15	0xbe55b8e0	-0.20871305
16	0xbe072be7	-0.13200341
17	0x3e742ea9	0.23845924
18	0xbe4e412d	-0.2014205
19	0xbeaab576	-0.3334157
20	0x3e9224db	0.28543743
21	0xbdb9f885	-0.090806045
22	0x3e762a7b	0.24039643
23	0x3d069e8a	0.03286604
24	0x3e3346fc	0.17507547
25	0xbdfd38e8	-0.1236437
26	0x3db2fda5	0.08739785
27	0xbce26823	-0.027637547
28	0x3e331bad	0.17491026
29	0xbd751399	-0.059833143
30	0xbd36222e	-0.04446619
31	0x3d9b1c65	0.07573775
32	0xbcd7fe5d	-0.026366407
33	0x3cfb2afc	0.030660145
34	0x3df189e4	0.11793879
35	0xbe332641	-0.17495061
36	0xbe7e3dec	-0.24828309
37	0x3cbb618a	0.022873659
38	0x3ebe22a9	0.3713582
39	0xbed97612	-0.42472893
40	0xbd93db9b	-0.07219621
41	0x3e7ab389	0.2448255
42	0x3e7405d2	0.23830345
43	0x3c49cf46	0.012317484
44	0xbe3d4ce4	-0.18486363
45	0x3d05d820	0.032676816
46	0x3e0eb65e	0.13936755
47	0x3e9faf5f	0.31188485
48	0x3dedbce2	0.11608292
49	0xbe54cce1	-0.2078128
50	0x3ebdfcf0	0.37107038
51	0x3e4c7eb9	0.19970216
52	0xbddccf32	-0.10781707
53	0x3e9e26e3	0.30889043
54	0x3d3b0e9b	0.045668226
55	0x3dbefd51	0.0932566
56	0x3e19e661	0.15029289
57	0xbd6e0c38	-0.05811712
58	0x3e3c6454	0.18397647
59	0x3ea9c856	0.33160657
60	0xbdcd55c2	-0.10026123
61	0x3eb9b54e	0.36271137
62	0x3e831f91	0.2561002
63	0xbeaafec5	-0.333975
64	0xbe77fa52	-0.24216583
65	0x3ea9d082	0.3316689
66	0x3e1adb77	0.15122782
67	0x3da9664d	0.082714655
68	0x3d924512	0.0714208
69	0x3e4b9dd9	0.19884433
70	0x3db78d72	0.089625254
71	0x3d951adb	0.07280513
72	0x3eb259a0	0.34834003
73	0xbe6bc51c	-0.2302441
74	0x3eb0523a	0.34437734
75	0xbe55c8b3	-0.20877342
76	0x3e97fe9c	0.2968644
77	0xbeb3aab7	-0.35091183
78	0x3d20a748	0.03922203
79	0x3df7c959	0.12098951
80	0xbe45cc86	-0.19316301
81	0xbdb2d658	-0.08732289
82	0x3e253607	0.16133891
83	0xbd1d28dc	-0.038369045
84	0xbc302487	-0.010750896
85	0xbe470993	-0.19437246
86	0xbe2c0a3c	-0.16800779
87	0xbe70881d	-0.23489423
88	0xbdc52162	-0.09625508
89	0x3e6d83e5	0.23194845
90	0xbe12565c	-0.14290756
91	0xbeb02950	-0.3440652
92	0x3c04e0f1	0.008110271
93	0xbd8be2de	-0.06830381
94	0x3ce4c726	0.027926993
95	0x3d841fd4	0.06451383
96	0x3e94b037	0.2904069
97	0xbe6453a1	-0.22297527
98	0xbaf19a1a	-0.0018432767
99	0xbe1f02aa	-0.1552836
100	0x3e5f2e03	0.21794896
101	0x3e058d50	0.13042188
102	0x3e14acd6	0.14519057
103	0x3ea8b32d	0.329492
104	0xbe01877c	-0.1264934
105	0x3e0688fe	0.13138196
106	0x3e9e81e6	0.3095848
107	0xbe2a4075	-0.16626151
108	0xbe9aa072	-0.30200535
109	0x3e4d9436	0.20076069
110	0x3df8671f	0.12129044
111	0xbe9e1683	-0.3087655
112	0xbe973fbb	-0.2954081
113	0x3e75d8d5	0.24008496
114	0x3e606b7d	0.21916004
115	0xbe6c8eff	-0.23101424
116	0x3e10dfa7	0.14147817
117	0xbdaedcf3	-0.085382365
118	0xbe0c9471	-0.13728501
119	0xbdc6a344	-0.09699109
120	0x3e9df6af	0.30852267
121	0xbe77eff3	-0.24212627
122	0x3ea20333	0.31643066
123	0x3ec9305a	0.39294702
124	0x3be42334	0.0069622044
125	0x3e1fe6f7	0.1561545
126	0x3c3c3f92	0.011489766
127	0x3ed615a9	0.418134
128	0xbd3843a9	-0.0449864
129	0xbe44644c	-0.19178885
130	0x3c6f3954	0.01460107
131	0x3cf879a7	0.030331446
132	0x3d437b6e	0.047725134
133	0x3e36d578	0.1785487
134	0x3d1989df	0.037485
135	0xbdbc35d9	-0.09189958
136	0xbe09581a	-0.13412514
137	0x3ea01eca	0.3127349
138	0x3e4ad0d8	0.1980623
139	0x3edd6c9d	0.43246928
140	0xbe28f58b	-0.16499917
141	0x3e2d93bf	0.16950892
142	0x3dc08fb9	0.09402413
143	0xbd829ee6	-0.06377964
144	0x3e23ccca	0.1599609
145	0x3dd810f5	0.10550109
146	0xbab927e5	-0.0014126269
147	0xbe7b9818	-0.24569738
148	0x3dcf5dfb	0.10125347
149	0xbccdd432	-0.025125597
150	0xbe8f790f	-0.28022048
151	0xbdfb725b	-0.12277671
152	0xbe224d5d	-0.15849824
153	0x3d85c5fd	0.06531904
154	0x3de8b98d	0.11363516
155	0xbd921598	-0.07133025
156	0xbd214a95	-0.039377768
157	0xbed1b74f	-0.40960166
158	0xbd167ec7	-0.036741998
159	0x3db3a2e5	0.08771304
160	0xbe2e87a6	-0.17043933
161	0x3e547ed6	0.20751509
162	0xbdad72a2	-0.0846913
163	0xbe6a2699	-0.22866286
164	0x3e4c6223	0.19959311
165	0xbec97176	-0.39344376
166	0xbe35cfab	-0.17755
167	0x3dac66b9	0.0841803
168	0x3e970a95	0.2950026
169	0x3d3008c1	0.0429771
170	0x3eb4e906	0.35334033
171	0x3e43f283	0.1913548
172	0x3e2a8215	0.16651185
173	0xbe8ce15b	-0.27515683
174	0x3d87df21	0.06634355
175	0x3d842a6c	0.06453404
176	0xbe1dcead	-0.15410872
177	0xbe873975	-0.26411024
178	0x3e1d258e	0.15346357
179	0xbdf1ae07	-0.11800771
180	0xbe31a34e	-0.17347452
181	0xbe8ccb2f	-0.27498767
182	0xbed6e215	-0.41969362
183	0xbec2efd9	-0.38073614
184	0xbde4fb35	-0.111807264
185	0x3e9d328d	0.3070263
186	0xbd105307	-0.03523543
187	0x3e10421d	0.1408772
188	0xbe27010b	-0.16308992
189	0xbd71cd4e	-0.059033684
190	0xbdd56f49	-0.104216166
191	0x3e9bbb8a	0.30416518
192	0x3b111c9a	0.0022142292
193	0xbdf671ee	-0.12033449
194	0xbc6b66b0	-0.014367744
195	0x3d4d5eed	0.050139356
196	0xbe1a3bdc	-0.15061897
197	0x3e7cc56a	0.24684682
198	0xbe77c217	-0.24195133
199	0xbd4eaf29	-0.050460014
200	0x3c92d206	0.017922413
201	0x3e295131	0.16534878
202	0x3e777287	0.24164782
203	0x3e66a6b9	0.22524537
204	0xbec7e000	-0.39038086
205	0x3e44e35f	0.1922736
206	0xbe7a67de	-0.24453685
207	0xbe82c919	-0.2554405
208	0xbdd953cb	-0.10611685
209	0x3e41573c	0.18880934
210	0x3dbb5c72	0.09148492
211	0x3ea6a651	0.32548764
212	0x3d9d78f0	0.076890826
213	0x3e91b6f5	0.28459898
214	0xbdf2aec4	-0.1184974
215	0x3d077b90	0.033076823
