others/weight_6.npy (npy, 9344 bytes, 1 tensors)

array f4 [3, 3, 16, 16]
00000000: 4f00 963d 9a77 87be c1f2 a33e 33ac 053f
00000010: ffb4 623e b284 863e 6151 e23d f0f8 f0bb
00000020: 02b6 3d3d bdf1 a3bd e245 c23d 5815 4dbe
00000030: 14cc ec3d 75d7 e9bd 2ba8 d3be 81c0 8c3d
00000040: f433 f03c a2cb 453e a6d9 523e 301a 983d
00000050: b380 20bd b962 82bc 3453 1c3d 7378 093e
00000060: 5afc b7bd d398 5abe 6ad1 88bd 6f63 253d
00000070: 8ab7 bb3c e509 c53d 1fd9 7bbe 6cfe 72be
00000080: 6c41 2dbd 49bc 5a3e 2a36 0dbd 3b13 553e
00000090: e0be 383d 3431 063c 60b6 263e 60b9 00be
000000a0: 7eb3 ca3d 9a74 0dbe 440b 11be f128 873b
000000b0: 29c0 20bd a6ab 6dbe 0828 993c 97cf a83c
000000c0: 353f 1dbe 4f2b f23d 344b 35be bee1 84be
000000d0: c7b1 6fbd b3ce 1c3d 8a11 363e c06a 33bd
000000e0: dc5b 083e 62ff 4dbc 2a70 783d cbad 6dbe
000000f0: f73d 0dbe b99d 1fbe b750 183d a0d7 cb3d
00000100: 65b2 063c 2c1b 193e 9993 1fbe 8614 1e3e
00000110: a103 0c3e c221 723c 10f6 923c 6497 3bbe
00000120: 46d9 353e e93d acbc f7b9 cb3d e55f 8ebb
00000130: 5414 c03c 1106 ea3d 3520 46be 625d aebd
00000140: 323e 58be e193 7dbe fdda 2bbe 905a 88be
00000150: 9956 51be 4870 c0bd 78f2 75bd d36e 3f3c
00000160: 4ec1 62be 6c08 78be 5d12 63bd 2eba 08be
00000170: 7c26 b7bd 44e4 dcbd 853b 393d 9e20 223d
00000180: 7833 6ebe 3725 9abe bdfc 69be a2a7 3ebe
00000190: 3139 f6bd c6d7 c4bd 0733 11be b3fd d8be
000001a0: e09b 07be e7bd 41bd bc22 b0bd 3ce1 52bd
000001b0: 0b8e 57be 06e1 1a3d 6555 15be 1039 72bd
000001c0: edf8 293d 31dc 183e 25b5 eebe c905 e33d
000001d0: da9a 88bc 9813 033e 11c7 b2bc e83e ae3e
000001e0: d6d8 11bd 55ef 59be 58c8 a6bd f1e9 d9bc
000001f0: 9d6d d63e 32f1 f8bd 07bf 643d 547e 683d
00000200: e2d9 93be 586c 73bb 9097 1ebe 6a5d 39bd
00000210: 16fd 873e 3782 24bd 223a 78be d78b 71be
00000220: 497e b13d e83c d7bd 770a 643e 632c 95bc
00000230: ddfc 49be b347 ab3b 4bb0 68be 2bac f83c
00000240: 7094 fa3c a287 81bd bc93 db3d d8cb d3be
00000250: 4fc0 17be ba52 53bd 43ca 6cbd 4486 9dbe
00000260: 28b8 e23d 659f 52bd bad6 21bd 89ff 96bd
00000270: 01ea e8bd 5a76 043e c66e d73d 67ef 11be
00000280: 0243 563d c346 0d3d 0013 103e 9dad 543d
00000290: cf0f 37be 3df9 55bc 62ae c73e 3179 8cbe
000002a0: 94cc 43bd 4592 0dbe 045a 57be cf14 c8bd
000002b0: bcbe 983e 3faa bebd 8ab2 4ebc 36da 4abd
000002c0: 153d 2ebe 9828 553e 91b0 d0be 48d3 bdbc
000002d0: f552 58bd dca4 cfbd 464c ddbd 9dc1 26bc
000002e0: cea3 3ebc b0e5 e63d b08b 953e ec66 e0be
000002f0: 5d77 413d 331c a1bd 2fb1 2cbd 9c51 a13e
00000300: 4661 4a3e 4b6f b13e 4365 89be 2f61 9abe
00000310: 3737 3fbe f405 aebe baa0 2c3e ec5b 433e
00000320: 0adf 403e 29f5 99be cfd5 24be 4d30 efbd
00000330: 353f 54be a8a6 33bd 6da2 293d dbb1 2d3b
00000340: 7a5f 73bc 2adf ab3d 6872 b83d 7a20 013b
00000350: 0318 ecbe d56b 80be ac9f 283e 246b 153f
00000360: 4619 cbbc 1403 0e3e df02 90be 3d0f 853d
00000370: a997 a33d 009a 573e 3dc4 203e ee2a 9c3d
00000380: 1fdd 4b3c 21a1 333d d660 093e 014c e4bd
00000390: cd63 5a3d 302c dcbd 261a 6cbe 79f1 4ebe
000003a0: 7b92 353e ffa8 983e 4f01 293e a664 903c
000003b0: 41de 913e 5e0c ca3b 0940 a5bd 8263 663e
000003c0: 4e14 6c3e b464 d43d 0c24 dd3c 4562 50be
000003d0: 6eee 0ebc d929 acbd d330 08be 2fe5 203c
000003e0: d2d4 5bbd 009f 693d 8461 79bd e7be ebbd
000003f0: 65cf c3bd a836 4e3e 1e1c ab3d dc37 35bd
0.073242776 -0.26458436 0.32021144 0.5221588 0.22139357 0.26273113 0.11050678 -0.0073538944
0.046316154 -0.08005092 0.09485985 -0.20027673 0.11562362 -0.11418048 -0.4133924 0.06872655
0.029321648 0.19315961 0.20590839 0.0742687 -0.039185237 -0.015916215 0.038165286 0.13424854
-0.08983679 -0.2134736 -0.066805676 0.04037803 0.022914667 0.09621028 -0.24594544 -0.23729867
-0.04229872 0.21360888 -0.034475483 0.20808117 0.045103908 0.008190442 0.16280508 -0.12570715
0.09897517 -0.13814011 -0.14164454 0.0041247536 -0.03924576 -0.2321001 0.018695846 0.020606799
-0.15356143 0.11824667 -0.17704469 -0.25953478 -0.05851915 0.03828306 0.17780128 -0.043802977
0.13316292 -0.012573095 0.060653843 -0.23210828 -0.13793169 -0.1558751 0.03718635 0.099532366
0.0082212435 0.14951771 -0.15583648 0.15437517 0.1367326 0.014778556 0.017939597 -0.1831947
0.17758664 -0.021025615 0.09947579 -0.0043449276 0.023447193 0.11426938 -0.19348224 -0.08513905
-0.21117476 -0.24763443 -0.16782756 -0.26631594 -0.2044319 -0.09396416 -0.06004569 0.011684137
-0.22144052 -0.24221963 -0.055437434 -0.13352272 -0.08942887 -0.10785726 0.045222778 0.039581887
-0.23261821 -0.30106518 -0.22850318 -0.18618634 -0.12022627 -0.09611468 -0.14179622 -0.42381057
-0.13243055 -0.047300246 -0.08600375 -0.05148433 -0.21050279 0.037812255 -0.14583357 -0.05913645
0.04149716 0.14927746 -0.46622577 0.11085088 -0.016675401 0.12800443 -0.021823438 0.3403237
-0.03560718 -0.21282704 -0.08143681 -0.02660081 0.41880503 -0.12155379 0.05584624 0.0567611
-0.2887717 -0.0037143435 -0.15487504 -0.045255102 0.26560277 -0.040163245 -0.24240926 -0.23588501
0.08666665 -0.10509664 0.22269617 -0.018209642 -0.19725366 0.005227053 -0.227235 0.030355534
0.030588359 -0.06324698 0.107215375 -0.41366458 -0.14819454 -0.051592566 -0.05781008 -0.307665
0.11070281 -0.05142154 -0.03951142 -0.07372958 -0.11372758 0.12935773 0.10519175 -0.14251481
0.052309997 0.03449131 0.14069748 0.051923383 -0.17877124 -0.013059911 0.3900023 -0.27436212
-0.047802523 -0.13825329 -0.21030432 -0.09769594 0.2983302 -0.093098156 -0.012615809 -0.04952451
-0.17015488 0.20816267 -0.4075971 -0.023172036 -0.05281349 -0.10138866 -0.10805564 -0.010177997
-0.011635734 0.11274278 0.29208136 -0.43828523 0.047232974 -0.07866707 -0.042161163 0.31507576
0.1976367 0.34655222 -0.2683507 -0.3015227 -0.18673407 -0.33988917 0.16858187 0.19078034
0.18835083 -0.30069855 -0.16097187 -0.116791345 -0.20727237 -0.043860108 0.041414667 0.0026503715
-0.014854306 0.083921745 0.09006196 0.0019703195 -0.4611207 -0.2508227 0.1646716 0.5836661
-0.024792325 0.13868362 -0.2812719 0.06497047 0.07987911 0.2105484 0.15699859 0.07625376
0.012442856 0.043854836 0.13415846 -0.11147309 0.053317834 -0.107506156 -0.2305685 -0.20209302
0.17731659 0.29816434 0.16504405 0.017626118 0.2848988 0.006166025 -0.08068854 0.22498897
0.2305462 0.1037077 0.026994728 -0.20349987 -0.008723838 -0.08406419 -0.13299875 0.009820267
-0.05366976 0.0570364 -0.060884014 -0.11511021 -0.09561042 0.20138037 0.08354972 -0.044242725
