others/weight_2.npy (npy, 4736 bytes, 1 tensors)

array f4 [3, 3, 8, 16]
0.14178656 0.3519557 0.14578691 -0.13670331 -0.15615979 0.26649135 0.0032067976 -0.055401273
-0.11995424 -0.059057146 -0.12622872 0.07974238 0.18492585 0.1981346 -0.25205618 0.33265665
0.25568864 -0.28522268 0.122790925 -0.14783512 -0.027988255 0.0077542826 -0.09608963 -0.19215734
0.026152886 0.00021099352 0.11127151 -0.251371 -0.033012953 0.10140478 -0.031236649 -0.08233451
-0.021555524 -0.12482724 0.12833123 0.027013991 -0.09519192 0.016285507 0.13657685 0.17549548
-0.032663714 -0.19044158 0.15737595 0.02744476 -0.13163796 -0.13476604 -0.14985475 0.1284487
-0.04864728 0.37437427 0.3804176 -0.28776604 0.4299908 -0.22701778 -0.41581425 0.3676543
0.12166833 -0.40755567 -0.10571853 -0.12617426 0.056582283 -0.14228748 0.32317498 -0.28958136
-0.32482097 0.17686324 0.109417796 0.21997193 -0.2572483 0.33403236 0.15454593 0.08346226
-0.05577746 0.41557363 0.12411781 -0.35654297 0.09202471 -0.33175212 0.2891334 0.06105896
-0.30445248 0.32912043 0.20638195 -0.31726474 -0.08172197 -0.1420096 -0.28711727 -0.010845426
-0.059033178 -0.5838601 -0.021422034 -0.24056017 0.14236711 0.21123433 -0.10500706 0.09605276
0.047288142 -0.07092153 -0.1331929 -0.40248683 -0.08455449 0.24330372 0.33531648 0.22747806
-0.11614132 0.19188268 -0.10091957 0.03904817 -0.36779773 0.2856461 0.01349823 0.24865858
-0.103205815 -0.28997833 -0.15098377 -0.37608615 0.06665524 0.16794014 -0.038092814 -0.38399434
0.123454615 -0.30436757 -0.2859783 0.06264416 0.120033376 0.12562267 -0.14594123 -0.06263357
0.06528983 0.39079025 -0.1277118 -0.083936475 -0.07119789 0.3390756 -0.01187433 -0.36526343
0.019000396 0.25462335 -0.111959174 -0.08503585 -0.20142074 0.3683793 -0.46550596 0.043752745
0.04919724 -0.15474042 -0.069862455 -0.10030291 0.08594571 0.101802215 0.08604206 -0.22986805
-0.007930335 -0.24350798 -0.0066999295 -0.104845114 0.22807609 0.07657248 -0.12133692 -0.1340432
-0.08113323 0.036991026 0.12972356 -0.04017437 0.19652086 0.15205103 0.15266012 -0.069642134
0.19806209 -0.17844515 0.08167073 0.10118351 0.12622248 0.045303762 -0.25467736 -0.10455519
0.12915757 -0.030545637 0.24833389 -0.3166374 0.54427093 -0.46978107 -0.74152106 -0.24714272
0.03267485 -0.08105585 -0.5516823 0.08813306 0.15302594 -0.017016292 0.469359 -0.26565588
-0.3002347 0.011338859 0.010893341 0.23567076 -0.12488103 -0.024381442 -0.039253283 0.24494734
-0.038126517 0.27434802 0.3230735 0.19361688 0.022991696 0.09851588 -0.099069096 0.13683952
0.08849342 -0.11488051 0.32512915 -0.29245433 -0.16275066 -0.39289922 -0.34166732 -0.1856526
-0.3546757 -0.305661 -0.25461516 -0.24137992 0.0783044 0.034576934 0.44529572 6.3411484e-05
0.32709414 0.13297471 -0.23727167 -0.15902011 0.17447226 0.09418682 -0.048588295 0.0034068122
-0.08524459 -0.10509475 -0.17735858 -0.00012471137 -0.23440981 0.05688428 0.12552856 0.10873161
0.26789275 0.10687477 -0.06321848 -0.55860186 0.07911963 -0.003303574 0.029005032 -0.4152508
0.04053108 -0.18685652 -0.12037591 0.066185236 0.19650926 0.50136846 -0.011255922 -0.10298325
00000000: 7f30 113e 8a33 b43e 2a49 153e f4fb 0bbe
00000010: 5ae8 1fbe 8e71 883e 2329 523b 72ec 62bd
00000020: 92aa f5bd e8e5 71bd 1a42 01be f94f a33d
00000030: 345d 3d3e cce3 4a3e 820d 81be f951 aa3e
00000040: 9fe9 823e b508 92be cf79 fb3d 1762 17be
00000050: a047 e5bc a317 fe3b a4ca c4bd e5c4 44be
00000060: 943e d63c 243e 5d39 51e2 e33d b3b3 80be
00000070: 9738 07bd 4fad cf3d 00e4 ffbc ff9e a8bd
00000080: 3695 b0bc 6da5 ffbd 4369 033e 724c dd3c
00000090: fbf3 c2bd 2f69 853c cdda 0b3e 16b5 333e
000000a0: 63ca 05bd 1e03 43be 2927 213e d5d3 e03c
000000b0: 1acc 06be 1c00 0abe 8673 19be 0e88 033e
000000c0: 5f42 47bd fcad bf3e 18c6 c23e 1256 93be
000000d0: c127 dc3e 5977 68be 9be5 d4be 2f3d bc3e
000000e0: 3f2d f93d 23ab d0be f582 d8bd d333 01be
000000f0: d3c2 673d cfb3 11be 3177 a53e 0244 94be
00000100: ef4e a6be a31b 353e 7016 e03d 5240 613e
00000110: 0db6 83be 4a06 ab3e 4a41 1e3e 43ee aa3d
00000120: e876 64bd 11c6 d43e 7a31 fe3d cd8c b6be
00000130: 7377 bc3d 6adb a9be 4b09 943e f618 7a3d
00000140: 32e1 9bbe 7982 a83e ca55 533e 8670 a2be
00000150: d95d a7bd f76a 11be 0901 93be 03b1 31bc
00000160: c6cc 71bd db77 15bf 437d afbc 6855 76be
00000170: afc8 113e d04d 583e f10d d7bd 4fb7 c43d
00000180: 36b1 413d 4f3f 91bd b863 08be c112 cebe
00000190: e82a adbd 9c24 793e 9aae ab3e 02f0 683e
000001a0: 80db edbd e57c 443e ebae cebd f9f0 1f3d
000001b0: fc4f bcbe 3540 923e ae27 5d3c 5ba0 7e3e
000001c0: 925d d3bd 0a78 94be 7d9b 1abe 5d8e c0be
000001d0: 8b82 883d 80f8 2b3e 3607 1cbd e89a c4be
000001e0: c6d5 fc3d 11d6 9bbe bf6b 92be 954b 803d
000001f0: 0fd4 f53d 3ba3 003e 9e71 15be 0746 80bd
00000200: adb6 853d a915 c83e e2c6 02be e3e6 abbd
00000210: 33d0 91bd 519b ad3e 8d8c 42bc cf03 bbbe
00000220: b8a6 9b3c fe5d 823e da4a e5bd 4727 aebd
00000230: 3d41 4ebe 369c bc3e cc56 eebe 1436 333d
00000240: 0c83 493d 4674 1ebe 0c14 8fbd 9d6b cdbd
00000250: 4e04 b03d ae7d d03d d236 b03d 8862 6bbe
00000260: 3cee 01bc 285a 79be 158b dbbb 09b9 d6bd
00000270: c78c 693e 08d2 9c3d 7e7f f8bd 9f42 09be
00000280: 2e29 a6bd e783 173d 41d6 043e e18d 24bd
00000290: c43c 493e 44b3 1b3e ef52 1c3e 89a0 8ebd
000002a0: cad0 4a3e 53ba 36be fc42 a73d 4d39 cf3d
000002b0: 7740 013e 7090 393d 1265 82be 0821 d6bd
000002c0: e241 043e d83a fabc 3d4b 7e3e 4c1e a2be
000002d0: 5755 0b3f 2587 f0be 53d4 3dbf fb12 7dbe
000002e0: 10d6 053d 9c00 a6bd 0d3b 0dbf 1b7f b43d
000002f0: d5b2 1c3e c065 8bbc d34f f03e 0c04 88be
00000300: 5db8 99be 9fc6 393c fc79 323c ad53 713e
00000310: a0c1 ffbd 97bb c7bc 0dc8 20bd 7ad3 7a3e
00000320: 8d2a 1cbd 5877 8c3e e469 a53e 8143 463e
00000330: 1559 bc3c b2c2 c93d bde4 cabd a91f 0c3e
00000340: 0a3c b53d 7946 ebbd 5477 a63e 93bc 95be
00000350: 1ca8 26be 162a c9be 05ef aebe b71b 3ebe
00000360: 0e98 b5be 997f 9cbe eb5c 82be 4c2c 77be
00000370: 0f5e a03d 8ba0 0d3d cdfd e33e c8fb 8438
00000380: e278 a73e 862a 083e 58f7 72be 2bd6 22be
00000390: dba8 323e 05e5 c03d 8504 47bd d344 5f3b
000003a0: b794 aebd eb3b d7bd 7d9d 35be f4c4 02b9
000003b0: 2009 70be 7eff 683d 8f8a 003e aeae de3d
000003c0: 3d29 893e 29e1 da3d b178 81bd 8800 0fbf
000003d0: 7909 a23d c680 58bb f69b ed3c c19b d4be
000003e0: eb03 263d 5157 3fbe a587 f6bd 208c 873d
000003f0: b939 493e af59 003f c26a 38bc e2e8 d2bd
