others/weight_18.npy (npy, 2688 bytes, 1 tensors)

array f4 [64, 10]
00000000: b4fa 35be 2078 0b3e c5c0 84bc 4772 7a3e
00000010: b1ec b73d 05d2 0abd 786f 64be 5617 39be
00000020: 6c5f 473c 8333 b03c 56bc 6fbe d66e 25be
00000030: 3f9c 4dbd 9ef5 5d3e d3ce 0c3e 4c4b 4b3e
00000040: 8b61 8ebd 0aaa 00be 2446 8abe e7ff 5dbe
00000050: ae47 4b3e 7dfe abbc 9e8d 14be 3f01 af3d
00000060: 4aba c93d af4e 223e 9286 41be 144a 0fbe
00000070: 5590 4ebd c138 443d da8a d9bd f348 85bc
00000080: e97a b13d d70d ac3d 41d6 89bd 895e 69be
00000090: 070a 2e3e 936a 5d3d e49d 8ebd b9f7 7d3e
000000a0: 2f80 34be 912d 88bc f7d9 6b3e 1049 a9bd
000000b0: e4d5 d0bc c10c 9fbd 0789 83bc d06b babc
000000c0: fd43 9b3c d7fb 4fbe 32f7 263c 6155 9bbe
000000d0: 8cf6 87bd 0346 523e 501f 5cbe 8df9 92bb
000000e0: 2a61 e93d 96f7 023d dc7d 06be 2482 27bd
000000f0: 1682 64be 4155 87be 290d 11be fecf 30be
00000100: 87c2 b9bd 5d1b 4fbe e225 aebd ccc4 8fbe
00000110: 882e c8bd 0061 a1be 6b6c 403e 0abe 223e
00000120: 3620 673d c2ed b33c 6c0e 023e 3f70 2c3d
00000130: cd41 95bd 79dc 3e3e f310 0c3d 79a0 3a3e
00000140: 979b a6bd 0de4 a9be 8187 22be a7e5 7d3e
00000150: fb0b 69be b709 58bd 49f2 03be e39b 61bd
00000160: 31f9 35ba 7346 2ebe af9b e53d 29a4 f7bc
00000170: ce2c f13d fc3d 323d 02a7 823d 9a8d c8bc
00000180: bb6d 033e 97fa 75bd e84c fc3d c2c5 42bd
00000190: 0fd9 19bd e1bc 60bc 6df1 34be 9d3b 2cbe
000001a0: 2ca2 4cbe ed2c 72be 02ca 5abe 8a1a 51be
000001b0: 4bcd 63bc 510c a5bc c40a 353d cef1 f4bd
000001c0: 6b49 b03d 046e 7c3d 3342 2ebd 32d0 8d3d
000001d0: f1ff b23d 2f51 f2bb 7179 c4bd 752e 31be
000001e0: ad40 733e 3361 3d3e 5ee4 9e3e 35ca 583e
000001f0: b077 c4bd 9a93 04bd 0bfd c4bd 4c98 82bd
00000200: f5e5 763e cde7 51be 3829 28be 92b8 b0bd
00000210: c564 24be fe07 1c3d 204c 19bc dfde 273d
00000220: d836 cb3c 6e10 cd3d c864 e53d 1bee 3d3d
00000230: d2e2 893d 45d2 00be f936 81bc 2cdf f4bd
00000240: 782a 8cbd bdcc 3fbe e02d 30be ac9a 4fbe
00000250: 3b5b a13d 13d4 3fbd 3d7f 8b3c 14ac 0b3e
00000260: 6200 f1bc 4450 0bbd 575e d9bd acc0 a2bd
00000270: 48d9 d93d d03a debd d336 f23d 6ebd ea3d
00000280: 8f23 30be c045 acbc 165d b53c c0f8 3fbe
00000290: 1e1f 34be 5383 9b3d 9a68 26be 4a00 343d
000002a0: a3a6 01be 2c7c 483e 5c17 09be c313 0cbe
000002b0: 7eb4 9abb c2a5 64bd 440b 863d 9ef7 f5bc
000002c0: db75 1d3d b062 5a3d 84bd 86be 5332 14be
000002d0: c0be 9dbd b252 cdbd 94a1 b33d 0f73 c73d
000002e0: a4c0 ff3d 6b9c a23d 288e df3d fdba 273c
000002f0: a0a3 cebd db61 fcbd a166 553d 7db9 27be
00000300: 3a16 393e aac5 813e 591e abba 3819 ddbd
00000310: f1eb 8fbd cfda 8abd af91 23be 91e0 373c
00000320: 7988 09be 2d8f 66be 2d63 873c 54ce 433d
00000330: 09c0 ad3d e387 933d cd46 8bbd 45b2 8e3d
00000340: 1210 4bbe 1dad 32be 0125 d3bc 9f9a 97be
00000350: 9daa 1ebe f42d 4cbe 543d 573d 80d8 68be
00000360: 8b8a 073e 8a1c 3e3e 167d 393e eac7 08ba
00000370: 61f4 3abd ec22 6dbe 921b 48bd a858 1abe
00000380: d801 8cbd 2a33 2dbe d9e9 23be 8560 32be
00000390: 7d77 38be ccd5 5cbe f13a 3b3e 57b6 18be
000003a0: b663 67be 3d33 a33d 577e 89bd 0aa2 34be
000003b0: 9846 1c3e 125d 13be c804 573e bb20 23be
000003c0: e499 3a3e 6bc1 dbbc 68b2 0fbe 790f b23d
000003d0: 3cb1 233e c1ee c63d 13fb 413d e25b 433e
000003e0: c5a9 393e b35c b53d f2e7 58bd 6fcd ec3d
000003f0: bbee 483e afd2 b5bd 1f9e 4f3d a9eb e93d
-0.17771417 0.13620043 -0.0162052 0.24457656 0.08980692 -0.033891696 -0.22308147 -0.18075308
0.012168746 0.021508938 -0.23411688 -0.16155562 -0.050197836 0.21675727 0.13750772 0.19852942
-0.069521986 -0.12564865 -0.27006638 -0.2167965 0.19851562 -0.020995373 -0.14507148 0.085451595
0.09849985 0.15850328 -0.18898991 -0.13993102 -0.050430615 0.047905687 -0.10622187 -0.016270136
0.086660214 0.08401077 -0.06730319 -0.22789969 0.16996013 0.054056715 -0.06963709 0.2480153
-0.17627023 -0.01662329 0.23032366 -0.08265889 -0.025492616 -0.077661045 -0.01605655 -0.022756487
0.018953318 -0.20310913 0.010190772 -0.30338576 -0.06638822 0.2053452 -0.2149632 -0.004485315
0.11395486 0.031974398 -0.13133949 -0.040895596 -0.22315249 -0.2643223 -0.14165176 -0.17266843
-0.09070306 -0.20225282 -0.08503319 -0.28079832 -0.097745 -0.31519318 0.18791358 0.15892807
0.056427203 0.021963958 0.12700814 0.042099234 -0.07287941 0.18638791 0.03419585 0.18225278
-0.08135145 -0.331818 -0.15872003 0.24794637 -0.22758476 -0.05274364 -0.12885393 -0.055080306
-0.00069417345 -0.17019062 0.11211335 -0.030229645 0.11776124 0.043516144 0.063795105 -0.024481583
0.12834828 -0.060053434 0.12319356 -0.047551878 -0.03756052 -0.013716907 -0.17670222 -0.16819616
-0.19983739 -0.2364995 -0.21366122 -0.2042028 -0.013903926 -0.020147474 0.04419972 -0.11960183
0.08607753 0.061628357 -0.0425436 0.06924476 0.08740223 -0.0073949317 -0.095934756 -0.17302878
0.2375514 0.1849411 0.31033605 0.21170886 -0.09593141 -0.032367326 -0.096185766 -0.063767046
0.24111159 -0.20498581 -0.16421974 -0.08628954 -0.16054066 0.03809356 -0.0093565285 0.04098403
0.024806425 0.10012899 0.11200863 0.046369653 0.06732716 -0.12580211 -0.015773283 -0.11956629
-0.06844038 -0.18730445 -0.17205 -0.20273846 0.07878729 -0.04683311 0.017028445 0.13639861
-0.029419128 -0.034012094 -0.10613697 -0.079469055 0.10637146 -0.10851061 0.11826863 0.11461912
-0.17201065 -0.021029353 0.022139113 -0.18747234 -0.17589995 0.075934075 -0.1625084 0.04394559
-0.12661223 0.19578618 -0.13387817 -0.13679413 -0.0047212234 -0.05582214 0.065451175 -0.0300253
0.038442474 0.053316772 -0.26316464 -0.14472322 -0.07702398 -0.100255385 0.08771053 0.097387426
0.12487915 0.079399906 0.10915786 0.010237453 -0.10089803 -0.12323352 0.052099828 -0.16379352
0.18074885 0.25346118 -0.0013055309 -0.10795826 -0.07027424 -0.06780016 -0.15973543 0.011222974
-0.13430966 -0.22515555 0.016526783 0.04780419 0.084838934 0.07203653 -0.068006136 0.06967596
-0.19830349 -0.1744885 -0.02577448 -0.29610154 -0.15494771 -0.19939405 0.05254872 -0.22738838
0.13236444 0.18565574 0.18114123 -0.0005217778 -0.045643214 -0.23157853 -0.048854418 -0.15072882
-0.06836289 -0.16914049 -0.16007175 -0.17419632 -0.18014331 -0.21565932 0.18284203 -0.14913307
-0.2259663 0.07968757 -0.067135505 -0.17639938 0.15261304 -0.14390972 0.20997918 -0.15930454
0.18222767 -0.026825627 -0.140329 0.086943574 0.15985578 0.097135074 0.047358584 0.1907802
0.18131168 0.088555716 -0.052955575 0.11562621 0.19622318 -0.08878075 0.050687905 0.11421902
