others/weight_14.npy (npy, 36992 bytes, 1 tensors)

array f4 [3, 3, 32, 32]
0	0xbbb3bd3a	-0.005485204
1	0xbdadfa6b	-0.08495029
2	0xbe6b6fde	-0.22991893
3	0xbd541221	-0.0517751
4	0x3a9a2188	0.0011759261
5	0xbe637ade	-0.22214839
6	0xbe9d08d3	-0.30670795
7	0xbbbe745e	-0.005812212
8	0xbdffcfd7	-0.12490814
9	0xbe89a6e0	-0.26885128
10	0x3c1a3e31	0.009414242
11	0xbe719790	-0.23592973
12	0xbd70a5f9	-0.058752034
13	0xbe00cc73	-0.12577991
14	0xbe65949a	-0.22419968
15	0x3da97a44	0.082752734
16	0xbd57978a	-0.052634753
17	0x3d0b288f	0.033974227
18	0xbe655f58	-0.22399652
19	0xbef7c702	-0.48394018
20	0xbd99dd69	-0.07512934
21	0x3db38269	0.08765108
22	0xbe0d58ae	-0.1380336
23	0xbeb9afd6	-0.36266965
24	0x3db85b5c	0.090018004
25	0xbe96dc38	-0.2946489
26	0xbdfb441b	-0.122688495
27	0x3d21460b	0.03937344
28	0xbd8187f9	-0.06324763
29	0x3df78958	0.12086743
30	0xbe099ac7	-0.13437949
31	0xbe4342e8	-0.19068491
32	0x3d608864	0.054817572
33	0xbeb6c7a9	-0.35699204
34	0x3e63be2b	0.22240512
35	0xbe96da09	-0.29463223
36	0xbe415c1d	-0.18882795
37	0xbd7c3545	-0.06157424
38	0xbe98320c	-0.29725683
39	0xbe987649	-0.29777744
40	0x3d1a7a2f	0.03771418
41	0x3db59ac9	0.088674136
42	0xbe8b2050	-0.2717309
43	0xbdc5f563	-0.096659444
44	0xbc967834	-0.018367864
45	0xbe02c322	-0.1276975
46	0xbe7755bb	-0.24153797
47	0xbd93380c	-0.071884245
48	0xbd043f43	-0.032286894
49	0xbca60ebf	-0.020270703
50	0xbdb851a5	-0.089999475
51	0xbe38ff4b	-0.18066137
52	0xbd9fa86b	-0.07795795
53	0xbe615644	-0.22005564
54	0xbdac258a	-0.084055975
55	0x3e5cd86d	0.21566935
56	0x3a770ac3	0.0009423906
57	0x3d7593d0	0.059955418
58	0x3d30d1a8	0.043168694
59	0xbd235525	-0.039876122
60	0x3e3c6238	0.18396842
61	0x3d4ccd22	0.050000317
62	0xbd9d0021	-0.0766604
63	0xbe4bb03d	-0.19891448
64	0x3e00be03	0.12572484
65	0xbdde07e4	-0.10841349
66	0x3e0de272	0.13855913
67	0xbc9eab7f	-0.019368885
68	0xbcd8af25	-0.026450703
69	0x3e1e9318	0.154858
70	0x3e8eeb25	0.27913776
71	0xbe35c8dc	-0.17752403
72	0x3d747f0a	0.059691466
73	0x3d973ed3	0.0738503
74	0xbe3e9530	-0.18611598
75	0x3ea9f0e5	0.331916
76	0x3e863986	0.26215762
77	0x3ea07a33	0.3134323
78	0xbd46b8c5	-0.048516054
79	0xbdb52b4b	-0.08846148
80	0x3e9978bd	0.29974928
81	0xbdd81902	-0.10551645
82	0x3e65802a	0.22412172
83	0xbd8e9568	-0.06962091
84	0xbd66bc6a	-0.05633203
85	0xbdef6607	-0.11689382
86	0x3e61745d	0.22017045
87	0x3d73213e	0.059357874
88	0x3e074627	0.13210355
89	0x3c478f5e	0.0121801775
90	0x3d011d61	0.03152216
91	0x3c51b5b8	0.012799673
92	0x3d9f735e	0.077856764
93	0xbd91cf1c	-0.07119581
94	0x3e0dc8f3	0.13846187
95	0x3d0a7aa3	0.03380836
96	0x3e2f814f	0.17139171
97	0x3dd3ab5f	0.10335421
98	0x3e1b1846	0.15145978
99	0xbdb069c2	-0.08613922
100	0x3e4ece7b	0.20195954
101	0x3c9811e7	0.018563224
102	0x3e1cca8f	0.15311645
103	0xbde1b332	-0.11020507
104	0xbe19ee12	-0.15032223
105	0xbdeedff2	-0.11663808
106	0xbb9485e0	-0.0045325607
107	0xbde10b22	-0.109884515
108	0x3d63d238	0.055620402
109	0x3e077a8f	0.13230346
110	0xbce0b6ef	-0.02743098
111	0x3d305ff6	0.043060265
112	0xbe0e2e11	-0.1388476
113	0xbd76cc95	-0.0602537
114	0x3d736258	0.05941996
115	0x3d68009e	0.056641214
116	0xbc6052f0	-0.013691649
117	0xbe694b39	-0.22782601
118	0xbd06bc64	-0.032894507
119	0xbe31307a	-0.17303649
120	0x3d9d724f	0.07687818
121	0xbdb04c5e	-0.08608316
122	0x3e7519f9	0.23935689
123	0xbe577d0a	-0.21043792
124	0xbcd2825a	-0.025696922
125	0xbda9b70d	-0.08286867
126	0x3dda3191	0.10653985
127	0x3e462e42	0.19353583
128	0xbdce5043	-0.100739025
129	0xbd90583f	-0.070480816
130	0xbdaf2f78	-0.08553976
131	0xbe3fcfe7	-0.18731652
132	0xbe1e6997	-0.15469967
133	0x3e3fa06f	0.18713544
134	0xbe266b00	-0.16251755
135	0xbd9974d8	-0.07492989
136	0x3d34ba6f	0.04412311
137	0xbe4f09f5	-0.20218642
138	0xbd4566df	-0.04819381
139	0xbcd59176	-0.026070338
140	0xbe5bc48e	-0.21461698
141	0x3d9dc3fc	0.07703397
142	0x3d048906	0.03235724
143	0x3db565c4	0.08857301
144	0x3d2ef9f5	0.042718846
145	0x3e7bec9e	0.24601981
146	0x3e6209a4	0.2207399
147	0x3e82e8d0	0.25568247
148	0xbdc51b1b	-0.096243106
149	0xbe88c2ec	-0.26711214
150	0xbd67d42c	-0.056598827
151	0x3c214e37	0.009845308
152	0xbda11a60	-0.07866359
153	0x3e6d4bee	0.23173496
154	0x3d9632aa	0.07333882
155	0x3d05ce43	0.03266741
156	0xbe0417ff	-0.12899779
157	0xbcd82c59	-0.026388334
158	0x3d26d983	0.04073478
159	0xbe133359	-0.14375056
160	0x3d8f5d6c	0.07000241
161	0xbead1b3f	-0.3380985
162	0xbdc2e06f	-0.095154636
163	0x3d66bfe2	0.056335337
164	0xbe9027d6	-0.28155392
165	0xbe2b9002	-0.16754153
166	0xb9d5c726	-0.00040774903
167	0xbe01b987	-0.1266843
168	0x3d4d0f7a	0.050063588
169	0xbd823c8b	-0.06359204
170	0xbe60edd6	-0.21965727
171	0xbd428106	-0.047486328
172	0xbcef414e	-0.029205944
173	0xbe38ad3b	-0.18034832
174	0xbd9cbdf3	-0.076534174
175	0x3ceec63e	0.029147264
176	0xbe512755	-0.2042516
177	0x3de08e8e	0.1096469
178	0xbda1cc4a	-0.07900293
179	0xbea80e87	-0.32823583
180	0xbddb6031	-0.107117064
181	0x3d8532f3	0.065038584
182	0x3e8139d4	0.25239432
183	0x3e498eaa	0.19683328
184	0xbe42a6cf	-0.19008945
185	0xbe0d0685	-0.13772018
186	0xbda503e2	-0.08057381
187	0x3ca3633e	0.019944783
188	0x3d8ca648	0.06867653
189	0xbde1e5c6	-0.11030154
190	0xbde576c3	-0.112042926
191	0x3c85c59f	0.016329585
192	0x3d9257c7	0.071456484
193	0x3bd83ded	0.006599179
194	0xbe2c9970	-0.16855407
195	0x3e5f4c0f	0.21806358
196	0xbe48525f	-0.19562672
197	0xbe74b677	-0.2389773
198	0xbde5ce0c	-0.11220941
199	0x3e2d3173	0.16913395
200	0xbe55efe3	-0.20892291
201	0xbc7dd44a	-0.015492508
202	0x3db88dad	0.090113975
203	0x3dd55ca7	0.10418063
204	0xbd824098	-0.063599765
205	0x3e6ac0dc	0.22925133
206	0x3dfbd8d9	0.1229722
207	0x3cad2dce	0.021140005
208	0x3dfa1e66	0.12212829
209	0xbceeb5f0	-0.029139489
210	0x3c985788	0.018596426
211	0x3e5bb473	0.21455555
212	0x3c632b64	0.013865326
213	0xbe9340a5	-0.28760257
214	0xbe4424c9	-0.19154657
215	0x3d62612a	0.055268444
216	0x3ced10ec	0.028938733
217	0xbdce9adf	-0.10088133
218	0xbed0692e	-0.40705246
219	0xbe477523	-0.19478278
220	0x3b19596c	0.0023399247
221	0xbddc83e7	-0.10767346
222	0x3dc170bc	0.094453305
223	0x3e7e4803	0.24832158
224	0xbdb04c1b	-0.08608266
225	0xbdc15f9b	-0.094420634
226	0xbe343298	-0.17597425
227	0x3d84596c	0.06462368
228	0xbd556fcb	-0.052108567
229	0x3e8d2517	0.2756736
230	0x3e457ddb	0.19286291
231	0xbea36082	-0.31909567
232	0x3e2baf68	0.16766131
233	0xbe6820ab	-0.22668712
234	0xbd17778b	-0.03697924
235	0xbe19920a	-0.14997116
236	0xbdc152bb	-0.09439608
237	0xbddbfc4f	-0.107414834
238	0xbe5a6f83	-0.21331601
239	0x3ce73e2c	0.028227888
240	0xbd85ec2b	-0.06539186
241	0xbb24f781	-0.0025171938
242	0x3e10b08b	0.14129846
243	0xbb129adb	-0.0022370133
244	0x3e1c37d0	0.15255666
245	0xbe12a405	-0.14320381
246	0x3e24aec4	0.16082293
247	0x3e475a29	0.19467987
248	0x3be8f735	0.0071095475
249	0x3cee9b35	0.029126743
250	0xbc9de93e	-0.019276258
251	0xbde71d69	-0.112849064
252	0x3a13ebbe	0.00056427333
253	0xbe8bcc6a	-0.27304393
254	0x3e227cf5	0.1586798
255	0x3debec82	0.1151972
