others/weight_16.npy (npy, 524416 bytes, 1 tensors)

array f4 [2048, 64]
000000 45 79 b7 3c 42 17 62 bd 40 4e 33 bd c4 d3 2a bd
       0.022396693 -0.05519796 -0.043775797 -0.04170586
000010 98 96 d6 bc 17 4f 1c bd 7f c4 4b 3d 22 a5 94 3d
       -0.026194856 -0.038161363 0.04974794 0.07258059
000020 05 92 93 bd df 48 7b 3d eb 38 28 3e 72 f4 f8 3d
       -0.072055854 0.061348792 0.16427962 0.12155999
000030 09 84 ed 3c 31 db 19 bc 80 5d 03 3d eb e2 e5 bc
       0.028993623 -0.009390638 0.03207159 -0.028062304
000040 66 6a c8 bb fb 83 8b be a0 0d a2 bd d5 8f 9f bd
       -0.0061161993 -0.2724913 -0.07912755 -0.07791106
000050 b9 e7 3a be d7 30 08 bd 8f a0 27 3b f8 df 35 bd
       -0.18252458 -0.033249702 0.0025577878 -0.044403046
000060 9b 85 97 bc f1 25 f1 bc b4 aa 16 bd 52 df c5 3a
       -0.018496325 -0.029437037 -0.03678389 0.0015096462
000070 b2 42 fd 3c 11 65 cf 3d 5a 66 7e bd df 27 85 bc
       0.030915592 0.10126699 -0.06210933 -0.016254364
000080 b2 62 ad bd 90 20 d2 3d 09 a8 17 bd 31 eb 08 3e
       -0.0846609 0.10260117 -0.037025485 0.13370968
000090 19 8a 71 bd b4 05 42 bd 2c 13 75 bc 3c 7d ac bd
       -0.05896959 -0.04736872 -0.014958184 -0.08422324
0000a0 d9 80 ab bd 4d 5f 88 bc 4a d3 34 bd 0d ad 85 bc
       -0.08374185 -0.016647005 -0.044146813 -0.016317869
0000b0 93 94 b5 bc c7 4c 25 3c cc 7d 66 bd 83 cc 48 bc
       -0.022165572 0.010089106 -0.056272313 -0.012255791
0000c0 cd 94 bd 3c 51 e5 b4 3d a3 1f b6 bd db c0 a2 3c
       0.023142243 0.08832801 -0.08892753 0.019867351
0000d0 80 e7 2c bc f5 df 2c bd 7a 86 33 bd 3c 9a a5 3d
       -0.010553241 -0.04220577 -0.04382942 0.080860585
0000e0 bc a8 2b 3d 41 cc 5e 3c eb 74 1e 3e 36 05 08 3e
       0.041908965 0.013598503 0.15474288 0.13283238
0000f0 8e 63 5e bc ec 75 d6 bd bb 7a c7 bd 9d 93 63 bd
       -0.01357354 -0.104717106 -0.09740206 -0.055560697
000100 66 62 17 bb 68 26 b8 bb 9f b4 83 bd 56 37 55 ba
       -0.0023099422 -0.0056198128 -0.06430935 -0.0008133551
000110 95 cd 9d 3b e3 93 2f bd 4f cf 7d 3c 56 f9 5b 3d
       0.004815767 -0.042865645 0.015491321 0.053704582
000120 bc a0 17 bd 53 88 ff bc cc bd 89 3e fa a0 39 3e
       -0.037018523 -0.031192934 0.26902616 0.18127814
000130 76 68 9f bd cf 9f 98 3c 8f 8e 31 3c f1 25 23 3e
       -0.07783596 0.01863089 0.010837211 0.15932442
000140 b5 77 9a bb 63 00 f5 bd 69 8e 96 bd 70 ad ac bc
       -0.004713977 -0.119629644 -0.07351381 -0.021078795
000150 f6 23 99 bd d3 ab 11 bc 57 67 8b ba e3 2a d0 3c
       -0.07477562 -0.008891064 -0.0010635656 0.025411075
000160 bf 14 5c bd 5e 1b 16 bd 69 5d 34 bb 0f 8d ee 3c
       -0.053730723 -0.036647193 -0.0027521497 0.029119996
000170 ae 7a 22 3e a4 90 81 3d b7 17 78 bd 73 b7 7e bc
       0.15867111 0.06326416 -0.06056949 -0.015546667
000180 89 3c 61 bd 26 ee 5a 3e cd d2 fb bc 45 f9 23 bc
       -0.05498937 0.21379909 -0.030740166 -0.010008161
000190 5a f1 7c 3d 58 a1 70 bd ca e7 87 3b f3 73 2b 3d
       0.06175361 -0.05874762 0.0041475045 0.041858625
0001a0 22 b8 4e 3a 0b 1f bf bc 2b 5a 52 bb 41 45 1e 3d
       0.00078857143 -0.023330232 -0.0032097201 0.038640264
0001b0 ef af 1d 3e dd a0 94 3d d6 36 65 bc e3 42 ce 3c
       0.15399145 0.07257245 -0.013990125 0.025178378
0001c0 79 21 ea 3d f5 2b 14 3e 9a 5c b0 bc c2 bf 78 3c
       0.11432166 0.14469893 -0.02152853 0.015182437
0001d0 48 17 08 3d 83 b8 1e 3b 37 22 4b bd f5 83 8b 3e
       0.033225328 0.0024218864 -0.049593177 0.27249113
0001e0 84 15 04 3d 4d 36 77 3e 8d 6f 73 3d 7d 4d c5 3d
       0.03224708 0.24141808 0.059432555 0.0963392
0001f0 e3 99 ee bb d9 d5 ca 3b 6d 92 3a 3d a7 e1 03 be
       -0.0072815283 0.0061900434 0.0455498 -0.12879048
000200 e0 83 1a bd ed bc e9 3c e6 fd e2 bc ba fc 3f 3d
       -0.037723422 0.02853247 -0.027708959 0.04687188
000210 2c 30 67 3b 99 f3 6a 3d ac 15 ef 3d 2b 33 93 be
       0.0035276515 0.05736122 0.116740555 -0.28749976
000220 5b 99 f6 3c 2a 5f 16 3e 29 00 59 3d 17 56 31 3e
       0.030102422 0.1468474 0.05297867 0.17317997
000230 81 69 6e bd 5d 2d e8 bc ee 55 10 3d ec 56 fb bb
       -0.058206085 -0.028341943 0.0352382 -0.007670274
000240 f9 5d 38 bc e3 0b 18 bd 18 a1 16 3e 08 86 a7 bc
       -0.011252874 -0.03712071 0.1470989 -0.020449653
000250 ed af 93 be 28 aa 16 bc f0 3b 8d 3e ab f2 21 bd
       -0.28845158 -0.009195842 0.2758479 -0.039538067
000260 4d 1e 1f bc ba 6d 41 bd 05 0b 95 3c 4d 08 11 be
       -0.009711814 -0.047223784 0.018193731 -0.14163323
000270 7d d5 18 be 87 df 0e 3c 01 ce b8 bc 3c 34 11 bd
       -0.1492519 0.008720285 -0.022559168 -0.035450205
000280 5f 64 24 3d 12 53 86 bd 3c 13 ee 3d a7 9d 9f bd
       0.040134784 -0.06558813 0.116247624 -0.07793742
000290 52 0e 63 3d 81 4b fe bd ca d7 78 bd f6 a9 10 3d
       0.05543358 -0.12416745 -0.060752667 0.035318337
0002a0 c5 61 ba bd c0 17 25 bd 10 cf 1f 3d 83 41 0b 3d
       -0.09100679 -0.040305853 0.03901583 0.033998024
0002b0 32 69 36 be 63 b1 a3 3d ff ed 97 bc 54 36 11 3d
       -0.17813566 0.07992818 -0.018546103 0.035452202
0002c0 b5 f2 14 3e af 9c d2 bd e0 bb 3a 3d ff ed 89 bd
       0.1454571 -0.10283791 0.045589328 -0.06734847
0002d0 66 98 d5 3c 68 47 43 3d b6 1a 88 bd d4 cf 77 bc
       0.026073646 0.04767552 -0.0664572 -0.015125234
0002e0 24 dc 76 3d 29 ea eb bd 6e 7b 46 3e 07 cd bc 3d
       0.060268536 -0.11519272 0.19383022 0.09218793
0002f0 45 92 28 3d e3 2a fa bc 5f 9d 15 3e cb e5 d3 bd
       0.04115512 -0.030538028 0.14610814 -0.10346564
000300 b4 16 1f bd be b3 44 bc 1c b3 1d bd e3 3f db 3c
       -0.03884001 -0.0120057445 -0.03850089 0.026763862
000310 58 94 66 bd 05 02 c1 3b f9 38 8f bc 08 50 01 3e
       -0.056293815 0.0058901333 -0.017483221 0.12628186
000320 d9 15 96 bd 83 b5 d1 3d e9 38 83 bc 59 88 39 bd
       -0.07328386 0.10239699 -0.016018348 -0.045296047
000330 af 58 96 bc c4 aa 88 bc d1 41 dd 3d e5 f3 fd bd
       -0.018352835 -0.01668299 0.10803569 -0.12400035
000340 80 2a 62 bd 7f 2d 5f 3e da 97 27 be 2f 84 1a 3c
       -0.055216312 0.21794699 -0.1636652 0.009430929
000350 69 03 52 3d 16 95 4d bd a1 a4 0c bd 7f 6b 41 bd
       0.051272783 -0.050191008 -0.03433669 -0.047221657
000360 e4 11 53 bd 22 c8 85 bd ac 28 9b bc 3f 64 e4 bd
       -0.051530734 -0.06532313 -0.018940292 -0.11151933
000370 c5 28 63 3e 44 ed ea 3c 93 b3 7b bc 31 8e 73 bc
       0.22183521 0.02867759 -0.015362638 -0.014865444
000380 30 10 b3 bd 9e c0 dc bc ee b7 27 3e e7 1c 0e 3d
       -0.08743322 -0.026947316 0.16378757 0.034695532
000390 fb cb 38 bc 1e 01 88 3d d7 3e 73 3c 0a c8 71 3b
       -0.0112791015 0.06640838 0.014846525 0.0036892914
0003a0 d8 85 a7 bd 20 56 7f bd 3f 00 2d 3d a2 c6 3c 3c
       -0.081798255 -0.062337995 0.042236563 0.011521967
0003b0 13 f7 27 3e 8b 1f 66 bd 37 c8 ea bb 5a a4 63 bd
       0.16402845 -0.056182425 -0.0071649808 -0.05557666
0003c0 d1 93 43 bd a4 0e 84 bb 68 9b 1e 3d f1 bd 11 be
       -0.04774839 -0.0040300656 0.038722426 -0.14232613
0003d0 99 d8 d9 3d a3 29 2d 3d 11 8f 12 3d 4d f0 58 3d
       0.10637016 0.042276036 0.03578097 0.052963544
0003e0 03 9c 00 3d e2 f3 5f be 58 c0 d4 bd 92 8a 44 bd
       0.031398784 -0.21870378 -0.10388249 -0.047983713
0003f0 f3 fb 06 bd fb c5 07 bd d7 69 ba 3d 58 bd 3f bc
       -0.03295512 -0.033147793 0.091022186 -0.011702858
